Benchmarking/modeles_yolo/320_pruned/best-int8_320_pruned.tflite (tflite, 857360 bytes, 63 tensors)

tfl.pseudo_qconst2 i1 [1, 1600, 1, 2] scale=0.15294118 zero_point=-125
0	0x80	-0.45882356
1	0x80	-0.45882356
2	0x86	0.45882356
3	0x80	-0.45882356
4	0x8d	1.5294118
5	0x80	-0.45882356
6	0x93	2.447059
7	0x80	-0.45882356
8	0x9a	3.5176473
9	0x80	-0.45882356
10	0xa0	4.435294
11	0x80	-0.45882356
12	0xa7	5.5058827
13	0x80	-0.45882356
14	0xad	6.4235296
15	0x80	-0.45882356
16	0xb4	7.4941177
17	0x80	-0.45882356
18	0xbb	8.564706
19	0x80	-0.45882356
20	0xc1	9.482353
21	0x80	-0.45882356
22	0xc8	10.552941
23	0x80	-0.45882356
24	0xce	11.470589
25	0x80	-0.45882356
26	0xd5	12.541177
27	0x80	-0.45882356
28	0xdb	13.458824
29	0x80	-0.45882356
30	0xe2	14.529412
31	0x80	-0.45882356
32	0xe8	15.44706
33	0x80	-0.45882356
34	0xef	16.517647
35	0x80	-0.45882356
36	0xf5	17.435295
37	0x80	-0.45882356
38	0xfc	18.505882
39	0x80	-0.45882356
40	0x02	19.42353
41	0x80	-0.45882356
42	0x09	20.494118
43	0x80	-0.45882356
44	0x10	21.564707
45	0x80	-0.45882356
46	0x16	22.482353
47	0x80	-0.45882356
48	0x1d	23.552942
49	0x80	-0.45882356
50	0x23	24.470589
51	0x80	-0.45882356
52	0x2a	25.541178
53	0x80	-0.45882356
54	0x30	26.458824
55	0x80	-0.45882356
56	0x37	27.529413
57	0x80	-0.45882356
58	0x3d	28.44706
59	0x80	-0.45882356
60	0x44	29.517649
61	0x80	-0.45882356
62	0x4a	30.435295
63	0x80	-0.45882356
64	0x51	31.505884
65	0x80	-0.45882356
66	0x57	32.42353
67	0x80	-0.45882356
68	0x5e	33.494118
69	0x80	-0.45882356
70	0x65	34.56471
71	0x80	-0.45882356
72	0x6b	35.482353
73	0x80	-0.45882356
74	0x72	36.552944
75	0x80	-0.45882356
76	0x78	37.47059
77	0x80	-0.45882356
78	0x7f	38.54118
79	0x80	-0.45882356
80	0x80	-0.45882356
81	0x86	0.45882356
82	0x86	0.45882356
83	0x86	0.45882356
84	0x8d	1.5294118
85	0x86	0.45882356
86	0x93	2.447059
87	0x86	0.45882356
88	0x9a	3.5176473
89	0x86	0.45882356
90	0xa0	4.435294
91	0x86	0.45882356
92	0xa7	5.5058827
93	0x86	0.45882356
94	0xad	6.4235296
95	0x86	0.45882356
96	0xb4	7.4941177
97	0x86	0.45882356
98	0xbb	8.564706
99	0x86	0.45882356
100	0xc1	9.482353
101	0x86	0.45882356
102	0xc8	10.552941
103	0x86	0.45882356
104	0xce	11.470589
105	0x86	0.45882356
106	0xd5	12.541177
107	0x86	0.45882356
108	0xdb	13.458824
109	0x86	0.45882356
110	0xe2	14.529412
111	0x86	0.45882356
112	0xe8	15.44706
113	0x86	0.45882356
114	0xef	16.517647
115	0x86	0.45882356
116	0xf5	17.435295
117	0x86	0.45882356
118	0xfc	18.505882
119	0x86	0.45882356
120	0x02	19.42353
121	0x86	0.45882356
122	0x09	20.494118
123	0x86	0.45882356
124	0x10	21.564707
125	0x86	0.45882356
126	0x16	22.482353
127	0x86	0.45882356
128	0x1d	23.552942
129	0x86	0.45882356
130	0x23	24.470589
131	0x86	0.45882356
132	0x2a	25.541178
133	0x86	0.45882356
134	0x30	26.458824
135	0x86	0.45882356
136	0x37	27.529413
137	0x86	0.45882356
138	0x3d	28.44706
139	0x86	0.45882356
140	0x44	29.517649
141	0x86	0.45882356
142	0x4a	30.435295
143	0x86	0.45882356
144	0x51	31.505884
145	0x86	0.45882356
146	0x57	32.42353
147	0x86	0.45882356
148	0x5e	33.494118
149	0x86	0.45882356
150	0x65	34.56471
151	0x86	0.45882356
152	0x6b	35.482353
153	0x86	0.45882356
154	0x72	36.552944
155	0x86	0.45882356
156	0x78	37.47059
157	0x86	0.45882356
158	0x7f	38.54118
159	0x86	0.45882356
160	0x80	-0.45882356
161	0x8d	1.5294118
162	0x86	0.45882356
163	0x8d	1.5294118
164	0x8d	1.5294118
165	0x8d	1.5294118
166	0x93	2.447059
167	0x8d	1.5294118
168	0x9a	3.5176473
169	0x8d	1.5294118
170	0xa0	4.435294
171	0x8d	1.5294118
172	0xa7	5.5058827
173	0x8d	1.5294118
174	0xad	6.4235296
175	0x8d	1.5294118
176	0xb4	7.4941177
177	0x8d	1.5294118
178	0xbb	8.564706
179	0x8d	1.5294118
180	0xc1	9.482353
181	0x8d	1.5294118
182	0xc8	10.552941
183	0x8d	1.5294118
184	0xce	11.470589
185	0x8d	1.5294118
186	0xd5	12.541177
187	0x8d	1.5294118
188	0xdb	13.458824
189	0x8d	1.5294118
190	0xe2	14.529412
191	0x8d	1.5294118
192	0xe8	15.44706
193	0x8d	1.5294118
194	0xef	16.517647
195	0x8d	1.5294118
196	0xf5	17.435295
197	0x8d	1.5294118
198	0xfc	18.505882
199	0x8d	1.5294118
200	0x02	19.42353
201	0x8d	1.5294118
202	0x09	20.494118
203	0x8d	1.5294118
204	0x10	21.564707
205	0x8d	1.5294118
206	0x16	22.482353
207	0x8d	1.5294118
208	0x1d	23.552942
209	0x8d	1.5294118
210	0x23	24.470589
211	0x8d	1.5294118
212	0x2a	25.541178
213	0x8d	1.5294118
214	0x30	26.458824
215	0x8d	1.5294118
216	0x37	27.529413
217	0x8d	1.5294118
218	0x3d	28.44706
219	0x8d	1.5294118
220	0x44	29.517649
221	0x8d	1.5294118
222	0x4a	30.435295
223	0x8d	1.5294118
224	0x51	31.505884
225	0x8d	1.5294118
226	0x57	32.42353
227	0x8d	1.5294118
228	0x5e	33.494118
229	0x8d	1.5294118
230	0x65	34.56471
231	0x8d	1.5294118
232	0x6b	35.482353
233	0x8d	1.5294118
234	0x72	36.552944
235	0x8d	1.5294118
236	0x78	37.47059
237	0x8d	1.5294118
238	0x7f	38.54118
239	0x8d	1.5294118
240	0x80	-0.45882356
241	0x93	2.447059
242	0x86	0.45882356
243	0x93	2.447059
244	0x8d	1.5294118
245	0x93	2.447059
246	0x93	2.447059
247	0x93	2.447059
248	0x9a	3.5176473
249	0x93	2.447059
250	0xa0	4.435294
251	0x93	2.447059
252	0xa7	5.5058827
253	0x93	2.447059
254	0xad	6.4235296
255	0x93	2.447059

tfl.pseudo_qconst4 i1 [18, 1, 1, 40]
0	0x66	102
1	0x21	33
2	0x9d	-99
3	0xe4	-28
4	0x0f	15
5	0x54	84
6	0xbf	-65
7	0x52	82
8	0x95	-107
9	0xaf	-81
10	0x14	20
11	0x24	36
12	0x81	-127
13	0xa8	-88
14	0xb0	-80
15	0x01	1
16	0x4d	77
17	0x13	19
18	0x76	118
19	0x4f	79
20	0x1a	26
21	0x23	35
22	0xd9	-39
23	0x0b	11
24	0x51	81
25	0xeb	-21
26	0xb7	-73
27	0x34	52
28	0xc7	-57
29	0xec	-20
30	0xeb	-21
31	0x11	17
32	0x09	9
33	0xf9	-7
34	0xd7	-41
35	0xe1	-31
36	0x73	115
37	0xcc	-52
38	0x58	88
39	0xe2	-30
40	0x46	70
41	0x16	22
42	0x0e	14
43	0x7f	127
44	0xee	-18
45	0x43	67
46	0xe0	-32
47	0xa9	-87
48	0xd0	-48
49	0xe2	-30
50	0xeb	-21
51	0x5a	90
52	0xd4	-44
53	0x06	6
54	0x08	8
55	0x1b	27
56	0xb9	-71
57	0xee	-18
58	0x0e	14
59	0xef	-17
60	0x9d	-99
61	0x1c	28
62	0x22	34
63	0xf4	-12
64	0x0c	12
65	0x26	38
66	0xc9	-55
67	0xd1	-47
68	0x1b	27
69	0xf8	-8
70	0xff	-1
71	0xb4	-76
72	0x11	17
73	0x0e	14
74	0x20	32
75	0xea	-22
76	0xfc	-4
77	0x07	7
78	0xf1	-15
79	0xfd	-3
80	0x71	113
81	0xac	-84
82	0x36	54
83	0x1b	27
84	0x37	55
85	0xde	-34
86	0x7f	127
87	0xed	-19
88	0xe6	-26
89	0x68	104
90	0xc1	-63
91	0x0c	12
92	0x21	33
93	0xe3	-29
94	0xea	-22
95	0xb5	-75
96	0x1c	28
97	0x48	72
98	0xdf	-33
99	0xcc	-52
100	0x15	21
101	0x24	36
102	0x15	21
103	0xd5	-43
104	0x1a	26
105	0xd7	-41
106	0x44	68
107	0x1c	28
108	0x14	20
109	0x4c	76
110	0xdb	-37
111	0xdd	-35
112	0x0e	14
113	0x0b	11
114	0x33	51
115	0x3b	59
116	0xf2	-14
117	0xd7	-41
118	0x26	38
119	0x03	3
120	0xf9	-7
121	0x23	35
122	0xc9	-55
123	0x3b	59
124	0x69	105
125	0x25	37
126	0x54	84
127	0x83	-125
128	0xe5	-27
129	0x0d	13
130	0x0e	14
131	0x91	-111
132	0x16	22
133	0x14	20
134	0xc0	-64
135	0x01	1
136	0x35	53
137	0x30	48
138	0xf9	-7
139	0xde	-34
140	0x07	7
141	0xb9	-71
142	0xff	-1
143	0x28	40
144	0xdb	-37
145	0xc9	-55
146	0x4b	75
147	0x03	3
148	0xff	-1
149	0x1d	29
150	0xe2	-30
151	0x31	49
152	0xa9	-87
153	0xe3	-29
154	0x14	20
155	0xf0	-16
156	0x7f	127
157	0xcb	-53
158	0xfd	-3
159	0x20	32
160	0x13	19
161	0xee	-18
162	0x07	7
163	0x01	1
164	0x1c	28
165	0xe6	-26
166	0xd8	-40
167	0xe5	-27
168	0x08	8
169	0xe8	-24
170	0xfa	-6
171	0xdc	-36
172	0x53	83
173	0xe5	-27
174	0xda	-38
175	0xf8	-8
176	0x17	23
177	0xdf	-33
178	0x25	37
179	0x0c	12
180	0x09	9
181	0xfc	-4
182	0x10	16
183	0xdc	-36
184	0x18	24
185	0x05	5
186	0xfd	-3
187	0x09	9
188	0xf0	-16
189	0x06	6
190	0x7f	127
191	0x08	8
192	0xfb	-5
193	0xf6	-10
194	0xee	-18
195	0x01	1
196	0xff	-1
197	0x06	6
198	0x03	3
199	0x06	6
200	0xda	-38
201	0x0e	14
202	0xae	-82
203	0x74	116
204	0x1d	29
205	0x11	17
206	0xea	-22
207	0x2b	43
208	0x5f	95
209	0x62	98
210	0xfe	-2
211	0x62	98
212	0x81	-127
213	0xfa	-6
214	0xc1	-63
215	0xba	-70
216	0x4d	77
217	0x16	22
218	0xe1	-31
219	0xb7	-73
220	0x52	82
221	0xc9	-55
222	0xf3	-13
223	0x1e	30
224	0x2d	45
225	0xa2	-94
226	0xe8	-24
227	0xdb	-37
228	0xb8	-72
229	0xf1	-15
230	0x60	96
231	0x17	23
232	0xd8	-40
233	0xfb	-5
234	0xdb	-37
235	0xe8	-24
236	0xc2	-62
237	0xeb	-21
238	0xe4	-28
239	0xe4	-28
240	0x4c	76
241	0xdc	-36
242	0xdd	-35
243	0xc4	-60
244	0x32	50
245	0xe4	-28
246	0xe4	-28
247	0x2c	44
248	0xc0	-64
249	0xc4	-60
250	0x47	71
251	0x2d	45
252	0x81	-127
253	0xcf	-49
254	0xef	-17
255	0x0d	13

tfl.pseudo_qconst7 i1 [1, 400, 1, 2] scale=0.07450981 zero_point=-121
0	0x80	-0.52156866
1	0x80	-0.52156866
2	0x8e	0.52156866
3	0x80	-0.52156866
4	0x9b	1.4901961
5	0x80	-0.52156866
6	0xa9	2.5333335
7	0x80	-0.52156866
8	0xb6	3.501961
9	0x80	-0.52156866
10	0xc3	4.470588
11	0x80	-0.52156866
12	0xd1	5.5137258
13	0x80	-0.52156866
14	0xde	6.482353
15	0x80	-0.52156866
16	0xec	7.5254903
17	0x80	-0.52156866
18	0xf9	8.494118
19	0x80	-0.52156866
20	0x06	9.462746
21	0x80	-0.52156866
22	0x14	10.505883
23	0x80	-0.52156866
24	0x21	11.47451
25	0x80	-0.52156866
26	0x2f	12.517648
27	0x80	-0.52156866
28	0x3c	13.486275
29	0x80	-0.52156866
30	0x4a	14.529412
31	0x80	-0.52156866
32	0x57	15.49804
33	0x80	-0.52156866
34	0x64	16.466667
35	0x80	-0.52156866
36	0x72	17.509804
37	0x80	-0.52156866
38	0x7f	18.478432
39	0x80	-0.52156866
40	0x80	-0.52156866
41	0x8e	0.52156866
42	0x8e	0.52156866
43	0x8e	0.52156866
44	0x9b	1.4901961
45	0x8e	0.52156866
46	0xa9	2.5333335
47	0x8e	0.52156866
48	0xb6	3.501961
49	0x8e	0.52156866
50	0xc3	4.470588
51	0x8e	0.52156866
52	0xd1	5.5137258
53	0x8e	0.52156866
54	0xde	6.482353
55	0x8e	0.52156866
56	0xec	7.5254903
57	0x8e	0.52156866
58	0xf9	8.494118
59	0x8e	0.52156866
60	0x06	9.462746
61	0x8e	0.52156866
62	0x14	10.505883
63	0x8e	0.52156866
64	0x21	11.47451
65	0x8e	0.52156866
66	0x2f	12.517648
67	0x8e	0.52156866
68	0x3c	13.486275
69	0x8e	0.52156866
70	0x4a	14.529412
71	0x8e	0.52156866
72	0x57	15.49804
73	0x8e	0.52156866
74	0x64	16.466667
75	0x8e	0.52156866
76	0x72	17.509804
77	0x8e	0.52156866
78	0x7f	18.478432
79	0x8e	0.52156866
80	0x80	-0.52156866
81	0x9b	1.4901961
82	0x8e	0.52156866
83	0x9b	1.4901961
84	0x9b	1.4901961
85	0x9b	1.4901961
86	0xa9	2.5333335
87	0x9b	1.4901961
88	0xb6	3.501961
89	0x9b	1.4901961
90	0xc3	4.470588
91	0x9b	1.4901961
92	0xd1	5.5137258
93	0x9b	1.4901961
94	0xde	6.482353
95	0x9b	1.4901961
96	0xec	7.5254903
97	0x9b	1.4901961
98	0xf9	8.494118
99	0x9b	1.4901961
100	0x06	9.462746
101	0x9b	1.4901961
102	0x14	10.505883
103	0x9b	1.4901961
104	0x21	11.47451
105	0x9b	1.4901961
106	0x2f	12.517648
107	0x9b	1.4901961
108	0x3c	13.486275
109	0x9b	1.4901961
110	0x4a	14.529412
111	0x9b	1.4901961
112	0x57	15.49804
113	0x9b	1.4901961
114	0x64	16.466667
115	0x9b	1.4901961
116	0x72	17.509804
117	0x9b	1.4901961
118	0x7f	18.478432
119	0x9b	1.4901961
120	0x80	-0.52156866
121	0xa9	2.5333335
122	0x8e	0.52156866
123	0xa9	2.5333335
124	0x9b	1.4901961
125	0xa9	2.5333335
126	0xa9	2.5333335
127	0xa9	2.5333335
128	0xb6	3.501961
129	0xa9	2.5333335
130	0xc3	4.470588
131	0xa9	2.5333335
132	0xd1	5.5137258
133	0xa9	2.5333335
134	0xde	6.482353
135	0xa9	2.5333335
136	0xec	7.5254903
137	0xa9	2.5333335
138	0xf9	8.494118
139	0xa9	2.5333335
140	0x06	9.462746
141	0xa9	2.5333335
142	0x14	10.505883
143	0xa9	2.5333335
144	0x21	11.47451
145	0xa9	2.5333335
146	0x2f	12.517648
147	0xa9	2.5333335
148	0x3c	13.486275
149	0xa9	2.5333335
150	0x4a	14.529412
151	0xa9	2.5333335
152	0x57	15.49804
153	0xa9	2.5333335
154	0x64	16.466667
155	0xa9	2.5333335
156	0x72	17.509804
157	0xa9	2.5333335
158	0x7f	18.478432
159	0xa9	2.5333335
160	0x80	-0.52156866
161	0xb6	3.501961
162	0x8e	0.52156866
163	0xb6	3.501961
164	0x9b	1.4901961
165	0xb6	3.501961
166	0xa9	2.5333335
167	0xb6	3.501961
168	0xb6	3.501961
169	0xb6	3.501961
170	0xc3	4.470588
171	0xb6	3.501961
172	0xd1	5.5137258
173	0xb6	3.501961
174	0xde	6.482353
175	0xb6	3.501961
176	0xec	7.5254903
177	0xb6	3.501961
178	0xf9	8.494118
179	0xb6	3.501961
180	0x06	9.462746
181	0xb6	3.501961
182	0x14	10.505883
183	0xb6	3.501961
184	0x21	11.47451
185	0xb6	3.501961
186	0x2f	12.517648
187	0xb6	3.501961
188	0x3c	13.486275
189	0xb6	3.501961
190	0x4a	14.529412
191	0xb6	3.501961
192	0x57	15.49804
193	0xb6	3.501961
194	0x64	16.466667
195	0xb6	3.501961
196	0x72	17.509804
197	0xb6	3.501961
198	0x7f	18.478432
199	0xb6	3.501961
200	0x80	-0.52156866
201	0xc3	4.470588
202	0x8e	0.52156866
203	0xc3	4.470588
204	0x9b	1.4901961
205	0xc3	4.470588
206	0xa9	2.5333335
207	0xc3	4.470588
208	0xb6	3.501961
209	0xc3	4.470588
210	0xc3	4.470588
211	0xc3	4.470588
212	0xd1	5.5137258
213	0xc3	4.470588
214	0xde	6.482353
215	0xc3	4.470588
216	0xec	7.5254903
217	0xc3	4.470588
218	0xf9	8.494118
219	0xc3	4.470588
220	0x06	9.462746
221	0xc3	4.470588
222	0x14	10.505883
223	0xc3	4.470588
224	0x21	11.47451
225	0xc3	4.470588
226	0x2f	12.517648
227	0xc3	4.470588
228	0x3c	13.486275
229	0xc3	4.470588
230	0x4a	14.529412
231	0xc3	4.470588
232	0x57	15.49804
233	0xc3	4.470588
234	0x64	16.466667
235	0xc3	4.470588
236	0x72	17.509804
237	0xc3	4.470588
238	0x7f	18.478432
239	0xc3	4.470588
240	0x80	-0.52156866
241	0xd1	5.5137258
242	0x8e	0.52156866
243	0xd1	5.5137258
244	0x9b	1.4901961
245	0xd1	5.5137258
246	0xa9	2.5333335
247	0xd1	5.5137258
248	0xb6	3.501961
249	0xd1	5.5137258
250	0xc3	4.470588
251	0xd1	5.5137258
252	0xd1	5.5137258
253	0xd1	5.5137258
254	0xde	6.482353
255	0xd1	5.5137258

tfl.pseudo_qconst9 i1 [18, 1, 1, 80]
0	0xef	-17
1	0x1b	27
2	0x05	5
3	0x13	19
4	0x15	21
5	0xe8	-24
6	0x1d	29
7	0xdd	-35
8	0xf1	-15
9	0x09	9
10	0xfa	-6
11	0x0c	12
12	0xcd	-51
13	0x1b	27
14	0xca	-54
15	0xf8	-8
16	0x11	17
17	0x07	7
18	0x0c	12
19	0x1c	28
20	0x1d	29
21	0xe8	-24
22	0x0b	11
23	0x31	49
24	0xf1	-15
25	0xf8	-8
26	0x07	7
27	0xc0	-64
28	0x00	0
29	0x29	41
30	0xe3	-29
31	0x08	8
32	0x0f	15
33	0x04	4
34	0xcb	-53
35	0xb2	-78
36	0xff	-1
37	0x0a	10
38	0x3d	61
39	0xf1	-15
40	0xe2	-30
41	0x31	49
42	0x2a	42
43	0xdf	-33
44	0x99	-103
45	0xfb	-5
46	0x2f	47
47	0xea	-22
48	0xe2	-30
49	0x1b	27
50	0x18	24
51	0x1f	31
52	0x08	8
53	0x3d	61
54	0xda	-38
55	0x4c	76
56	0x16	22
57	0x0e	14
58	0x81	-127
59	0x74	116
60	0xeb	-21
61	0xce	-50
62	0x02	2
63	0x43	67
64	0xd2	-46
65	0x4a	74
66	0x27	39
67	0xd4	-44
68	0x27	39
69	0xfa	-6
70	0xf3	-13
71	0xe3	-29
72	0x12	18
73	0x0a	10
74	0xfa	-6
75	0x0a	10
76	0xed	-19
77	0x1f	31
78	0x3b	59
79	0xdc	-36
80	0x9e	-98
81	0xbc	-68
82	0x36	54
83	0xda	-38
84	0xf3	-13
85	0x2d	45
86	0x3c	60
87	0xca	-54
88	0xba	-70
89	0x1a	26
90	0x2d	45
91	0xb2	-78
92	0xe7	-25
93	0xf0	-16
94	0x75	117
95	0x64	100
96	0xbf	-65
97	0x1a	26
98	0xf3	-13
99	0xf0	-16
100	0xa1	-95
101	0x42	66
102	0xd4	-44
103	0xfe	-2
104	0xab	-85
105	0x1f	31
106	0x20	32
107	0x07	7
108	0xf2	-14
109	0xcd	-51
110	0xde	-34
111	0xcb	-53
112	0xcd	-51
113	0xf6	-10
114	0x36	54
115	0x18	24
116	0xc8	-56
117	0xea	-22
118	0x09	9
119	0x07	7
120	0x3a	58
121	0x0a	10
122	0x16	22
123	0x42	66
124	0x19	25
125	0x55	85
126	0xcf	-49
127	0xe2	-30
128	0x16	22
129	0x3c	60
130	0x38	56
131	0x42	66
132	0x39	57
133	0x48	72
134	0x41	65
135	0xdb	-37
136	0x7f	127
137	0xcc	-52
138	0xac	-84
139	0xd5	-43
140	0x33	51
141	0x07	7
142	0xb7	-73
143	0x09	9
144	0x3b	59
145	0x4e	78
146	0xd6	-42
147	0x06	6
148	0x20	32
149	0xe2	-30
150	0xfd	-3
151	0xb7	-73
152	0xaf	-81
153	0x0d	13
154	0xe6	-26
155	0x44	68
156	0x62	98
157	0x34	52
158	0x3b	59
159	0x1f	31
160	0xd8	-40
161	0x05	5
162	0x04	4
163	0x27	39
164	0x19	25
165	0xea	-22
166	0x42	66
167	0x17	23
168	0xed	-19
169	0x12	18
170	0x05	5
171	0x26	38
172	0x25	37
173	0xf7	-9
174	0x0d	13
175	0xda	-38
176	0x42	66
177	0xb3	-77
178	0xea	-22
179	0xd4	-44
180	0xdb	-37
181	0xe4	-28
182	0xfe	-2
183	0x4b	75
184	0xfd	-3
185	0xec	-20
186	0xd6	-42
187	0x34	52
188	0x1a	26
189	0x0c	12
190	0x1b	27
191	0x07	7
192	0xc1	-63
193	0xfb	-5
194	0xe9	-23
195	0xdf	-33
196	0x2c	44
197	0xe0	-32
198	0xfa	-6
199	0x3d	61
200	0xe2	-30
201	0xb0	-80
202	0xf9	-7
203	0xe5	-27
204	0xe0	-32
205	0x1d	29
206	0x3a	58
207	0xf0	-16
208	0x7f	127
209	0xbb	-69
210	0x22	34
211	0x30	48
212	0xaf	-81
213	0x33	51
214	0x01	1
215	0xe8	-24
216	0x03	3
217	0x13	19
218	0x12	18
219	0x1a	26
220	0xcb	-53
221	0xbd	-67
222	0xa9	-87
223	0xc5	-59
224	0xd7	-41
225	0xe4	-28
226	0xf6	-10
227	0x41	65
228	0x10	16
229	0xfb	-5
230	0xc6	-58
231	0xd2	-46
232	0x00	0
233	0xa9	-87
234	0x02	2
235	0x4f	79
236	0xf0	-16
237	0xe7	-25
238	0x03	3
239	0x1f	31
240	0x76	118
241	0x1c	28
242	0xb1	-79
243	0x03	3
244	0x1f	31
245	0x22	34
246	0x1c	28
247	0x16	22
248	0xab	-85
249	0x19	25
250	0x1b	27
251	0xd0	-48
252	0xff	-1
253	0xc4	-60
254	0xd4	-44
255	0xa5	-91

tfl.pseudo_qconst13 i1 [1, 100, 1, 2] scale=0.03529412 zero_point=-114
0	0x80	-0.49411768
1	0x80	-0.49411768
2	0x9c	0.49411768
3	0x80	-0.49411768
4	0xb8	1.482353
5	0x80	-0.49411768
6	0xd5	2.5058825
7	0x80	-0.49411768
8	0xf1	3.4941177
9	0x80	-0.49411768
10	0x0d	4.482353
11	0x80	-0.49411768
12	0x2a	5.5058827
13	0x80	-0.49411768
14	0x46	6.4941177
15	0x80	-0.49411768
16	0x62	7.482353
17	0x80	-0.49411768
18	0x7f	8.505883
19	0x80	-0.49411768
20	0x80	-0.49411768
21	0x9c	0.49411768
22	0x9c	0.49411768
23	0x9c	0.49411768
24	0xb8	1.482353
25	0x9c	0.49411768
26	0xd5	2.5058825
27	0x9c	0.49411768
28	0xf1	3.4941177
29	0x9c	0.49411768
30	0x0d	4.482353
31	0x9c	0.49411768
32	0x2a	5.5058827
33	0x9c	0.49411768
34	0x46	6.4941177
35	0x9c	0.49411768
36	0x62	7.482353
37	0x9c	0.49411768
38	0x7f	8.505883
39	0x9c	0.49411768
40	0x80	-0.49411768
41	0xb8	1.482353
42	0x9c	0.49411768
43	0xb8	1.482353
44	0xb8	1.482353
45	0xb8	1.482353
46	0xd5	2.5058825
47	0xb8	1.482353
48	0xf1	3.4941177
49	0xb8	1.482353
50	0x0d	4.482353
51	0xb8	1.482353
52	0x2a	5.5058827
53	0xb8	1.482353
54	0x46	6.4941177
55	0xb8	1.482353
56	0x62	7.482353
57	0xb8	1.482353
58	0x7f	8.505883
59	0xb8	1.482353
60	0x80	-0.49411768
61	0xd5	2.5058825
62	0x9c	0.49411768
63	0xd5	2.5058825
64	0xb8	1.482353
65	0xd5	2.5058825
66	0xd5	2.5058825
67	0xd5	2.5058825
68	0xf1	3.4941177
69	0xd5	2.5058825
70	0x0d	4.482353
71	0xd5	2.5058825
72	0x2a	5.5058827
73	0xd5	2.5058825
74	0x46	6.4941177
75	0xd5	2.5058825
76	0x62	7.482353
77	0xd5	2.5058825
78	0x7f	8.505883
79	0xd5	2.5058825
80	0x80	-0.49411768
81	0xf1	3.4941177
82	0x9c	0.49411768
83	0xf1	3.4941177
84	0xb8	1.482353
85	0xf1	3.4941177
86	0xd5	2.5058825
87	0xf1	3.4941177
88	0xf1	3.4941177
89	0xf1	3.4941177
90	0x0d	4.482353
91	0xf1	3.4941177
92	0x2a	5.5058827
93	0xf1	3.4941177
94	0x46	6.4941177
95	0xf1	3.4941177
96	0x62	7.482353
97	0xf1	3.4941177
98	0x7f	8.505883
99	0xf1	3.4941177
100	0x80	-0.49411768
101	0x0d	4.482353
102	0x9c	0.49411768
103	0x0d	4.482353
104	0xb8	1.482353
105	0x0d	4.482353
106	0xd5	2.5058825
107	0x0d	4.482353
108	0xf1	3.4941177
109	0x0d	4.482353
110	0x0d	4.482353
111	0x0d	4.482353
112	0x2a	5.5058827
113	0x0d	4.482353
114	0x46	6.4941177
115	0x0d	4.482353
116	0x62	7.482353
117	0x0d	4.482353
118	0x7f	8.505883
119	0x0d	4.482353
120	0x80	-0.49411768
121	0x2a	5.5058827
122	0x9c	0.49411768
123	0x2a	5.5058827
124	0xb8	1.482353
125	0x2a	5.5058827
126	0xd5	2.5058825
127	0x2a	5.5058827
128	0xf1	3.4941177
129	0x2a	5.5058827
130	0x0d	4.482353
131	0x2a	5.5058827
132	0x2a	5.5058827
133	0x2a	5.5058827
134	0x46	6.4941177
135	0x2a	5.5058827
136	0x62	7.482353
137	0x2a	5.5058827
138	0x7f	8.505883
139	0x2a	5.5058827
140	0x80	-0.49411768
141	0x46	6.4941177
142	0x9c	0.49411768
143	0x46	6.4941177
144	0xb8	1.482353
145	0x46	6.4941177
146	0xd5	2.5058825
147	0x46	6.4941177
148	0xf1	3.4941177
149	0x46	6.4941177
150	0x0d	4.482353
151	0x46	6.4941177
152	0x2a	5.5058827
153	0x46	6.4941177
154	0x46	6.4941177
155	0x46	6.4941177
156	0x62	7.482353
157	0x46	6.4941177
158	0x7f	8.505883
159	0x46	6.4941177
160	0x80	-0.49411768
161	0x62	7.482353
162	0x9c	0.49411768
163	0x62	7.482353
164	0xb8	1.482353
165	0x62	7.482353
166	0xd5	2.5058825
167	0x62	7.482353
168	0xf1	3.4941177
169	0x62	7.482353
170	0x0d	4.482353
171	0x62	7.482353
172	0x2a	5.5058827
173	0x62	7.482353
174	0x46	6.4941177
175	0x62	7.482353
176	0x62	7.482353
177	0x62	7.482353
178	0x7f	8.505883
179	0x62	7.482353
180	0x80	-0.49411768
181	0x7f	8.505883
182	0x9c	0.49411768
183	0x7f	8.505883
184	0xb8	1.482353
185	0x7f	8.505883
186	0xd5	2.5058825
187	0x7f	8.505883
188	0xf1	3.4941177
189	0x7f	8.505883
190	0x0d	4.482353
191	0x7f	8.505883
192	0x2a	5.5058827
193	0x7f	8.505883
194	0x46	6.4941177
195	0x7f	8.505883
196	0x62	7.482353
197	0x7f	8.505883
198	0x7f	8.505883
199	0x7f	8.505883

tfl.pseudo_qconst16 i1 [18, 1, 1, 160]
0	0x30	48
1	0xd8	-40
2	0x11	17
3	0xea	-22
4	0xba	-70
5	0xf3	-13
6	0xfb	-5
7	0xc4	-60
8	0x1d	29
9	0x0d	13
10	0x37	55
11	0x1d	29
12	0xfa	-6
13	0x48	72
14	0x05	5
15	0x44	68
16	0x3d	61
17	0xf2	-14
18	0xf1	-15
19	0xd7	-41
20	0xec	-20
21	0xd6	-42
22	0xc4	-60
23	0xaa	-86
24	0x20	32
25	0x20	32
26	0x29	41
27	0x10	16
28	0xfb	-5
29	0x3c	60
30	0xc8	-56
31	0x01	1
32	0x23	35
33	0x1f	31
34	0xf1	-15
35	0xea	-22
36	0x11	17
37	0x57	87
38	0x41	65
39	0xd5	-43
40	0xea	-22
41	0xe5	-27
42	0xf5	-11
43	0xcb	-53
44	0xd0	-48
45	0x04	4
46	0xd1	-47
47	0x11	17
48	0x48	72
49	0xdf	-33
50	0xf9	-7
51	0x15	21
52	0xd5	-43
53	0xd6	-42
54	0xdd	-35
55	0x2f	47
56	0xe5	-27
57	0x55	85
58	0xba	-70
59	0x81	-127
60	0xf1	-15
61	0xd0	-48
62	0xa9	-87
63	0x6b	107
64	0xf9	-7
65	0xc4	-60
66	0x02	2
67	0xf1	-15
68	0x2b	43
69	0x20	32
70	0x3a	58
71	0xe9	-23
72	0xde	-34
73	0xed	-19
74	0xfd	-3
75	0xfd	-3
76	0x41	65
77	0xf6	-10
78	0x0a	10
79	0xeb	-21
80	0xce	-50
81	0x4a	74
82	0x1d	29
83	0x33	51
84	0xde	-34
85	0x0c	12
86	0x2b	43
87	0xe0	-32
88	0xed	-19
89	0xfd	-3
90	0x0e	14
91	0xfd	-3
92	0xbd	-67
93	0x2b	43
94	0x08	8
95	0xd6	-42
96	0x15	21
97	0xc5	-59
98	0xdc	-36
99	0x42	66
100	0xef	-17
101	0x19	25
102	0x48	72
103	0x37	55
104	0xd2	-46
105	0x55	85
106	0x05	5
107	0x13	19
108	0xf9	-7
109	0xcf	-49
110	0x00	0
111	0xe9	-23
112	0xd3	-45
113	0x16	22
114	0xd1	-47
115	0x28	40
116	0xb6	-74
117	0xb9	-71
118	0xf0	-16
119	0xfc	-4
120	0xe4	-28
121	0x06	6
122	0x28	40
123	0x02	2
124	0x0f	15
125	0x32	50
126	0xf8	-8
127	0xd3	-45
128	0xe2	-30
129	0x24	36
130	0xec	-20
131	0x46	70
132	0x05	5
133	0xec	-20
134	0x0d	13
135	0x07	7
136	0xef	-17
137	0xe2	-30
138	0xac	-84
139	0x0c	12
140	0x0c	12
141	0x1f	31
142	0x38	56
143	0x49	73
144	0xba	-70
145	0xd5	-43
146	0xfc	-4
147	0x0a	10
148	0x38	56
149	0xb8	-72
150	0x32	50
151	0xff	-1
152	0x37	55
153	0xde	-34
154	0xb0	-80
155	0x21	33
156	0x08	8
157	0x2f	47
158	0xf2	-14
159	0x15	21
160	0xd6	-42
161	0x0f	15
162	0xbf	-65
163	0xb0	-80
164	0x1f	31
165	0xa5	-91
166	0x9c	-100
167	0xf5	-11
168	0x52	82
169	0x1b	27
170	0x08	8
171	0x4a	74
172	0x30	48
173	0xf9	-7
174	0x10	16
175	0xff	-1
176	0x14	20
177	0x2f	47
178	0xea	-22
179	0x04	4
180	0x43	67
181	0x0a	10
182	0xf2	-14
183	0x0c	12
184	0x06	6
185	0xd0	-48
186	0x11	17
187	0x3d	61
188	0x19	25
189	0x2f	47
190	0x3d	61
191	0xff	-1
192	0xd1	-47
193	0x2a	42
194	0x31	49
195	0x05	5
196	0xd3	-45
197	0xcd	-51
198	0x27	39
199	0xbc	-68
200	0xf8	-8
201	0x42	66
202	0x09	9
203	0xb8	-72
204	0x07	7
205	0x0b	11
206	0x34	52
207	0x48	72
208	0xc1	-63
209	0x06	6
210	0xd0	-48
211	0xfa	-6
212	0xf6	-10
213	0xde	-34
214	0x1c	28
215	0xe6	-26
216	0x4f	79
217	0x0a	10
218	0x62	98
219	0xe1	-31
220	0xfc	-4
221	0x1f	31
222	0xf1	-15
223	0x15	21
224	0xa0	-96
225	0x07	7
226	0xe9	-23
227	0xf5	-11
228	0x02	2
229	0xd1	-47
230	0x3d	61
231	0x3b	59
232	0x0b	11
233	0x3f	63
234	0x30	48
235	0xd0	-48
236	0x01	1
237	0xda	-38
238	0x26	38
239	0xf9	-7
240	0xfc	-4
241	0xd1	-47
242	0x10	16
243	0x27	39
244	0xec	-20
245	0xf6	-10
246	0xf8	-8
247	0xfb	-5
248	0xe5	-27
249	0x8c	-116
250	0x35	53
251	0x6c	108
252	0xbe	-66
253	0x54	84
254	0xdc	-36
255	0xe2	-30

tfl.pseudo_qconst18 i1 [160, 1, 1, 160]
0	0x3c	60
1	0xea	-22
2	0xa5	-91
3	0xa3	-93
4	0x09	9
5	0xd1	-47
6	0x02	2
7	0x0f	15
8	0x33	51
9	0x39	57
10	0xa4	-92
11	0x00	0
12	0x44	68
13	0x05	5
14	0xf1	-15
15	0xf3	-13
16	0xfe	-2
17	0xae	-82
18	0xcd	-51
19	0x30	48
20	0x4b	75
21	0x1e	30
22	0xce	-50
23	0xb9	-71
24	0x3f	63
25	0xde	-34
26	0x50	80
27	0x37	55
28	0x07	7
29	0x20	32
30	0x0d	13
31	0xc5	-59
32	0x03	3
33	0x1c	28
34	0x19	25
35	0xc1	-63
36	0xbe	-66
37	0xef	-17
38	0x48	72
39	0x0e	14
40	0x09	9
41	0x24	36
42	0xcf	-49
43	0xf4	-12
44	0xce	-50
45	0xcc	-52
46	0x31	49
47	0xff	-1
48	0x38	56
49	0x39	57
50	0x08	8
51	0xc2	-62
52	0x81	-127
53	0xba	-70
54	0xa0	-96
55	0xa7	-89
56	0x4d	77
57	0xf9	-7
58	0xdf	-33
59	0xc4	-60
60	0xf0	-16
61	0xf9	-7
62	0xe3	-29
63	0xf4	-12
64	0xb3	-77
65	0xad	-83
66	0xb6	-74
67	0x2e	46
68	0x19	25
69	0x04	4
70	0xb1	-79
71	0x3d	61
72	0x37	55
73	0x02	2
74	0x3e	62
75	0xd1	-47
76	0xb1	-79
77	0x18	24
78	0xe9	-23
79	0x43	67
80	0xf1	-15
81	0x02	2
82	0x95	-107
83	0x08	8
84	0xb4	-76
85	0xb0	-80
86	0xdd	-35
87	0x3f	63
88	0xfc	-4
89	0xe4	-28
90	0xb1	-79
91	0x20	32
92	0x1b	27
93	0xc7	-57
94	0xa3	-93
95	0xa9	-87
96	0xd4	-44
97	0xe9	-23
98	0xf8	-8
99	0xbd	-67
100	0xee	-18
101	0xde	-34
102	0xc7	-57
103	0xaa	-86
104	0x24	36
105	0x0c	12
106	0xe0	-32
107	0x50	80
108	0x15	21
109	0x11	17
110	0x3c	60
111	0x25	37
112	0xf3	-13
113	0x3b	59
114	0xbe	-66
115	0xb1	-79
116	0xed	-19
117	0xb2	-78
118	0xf9	-7
119	0x0d	13
120	0x5e	94
121	0x1c	28
122	0x1c	28
123	0xd7	-41
124	0x47	71
125	0xc9	-55
126	0x26	38
127	0xbf	-65
128	0x5b	91
129	0xc8	-56
130	0x2f	47
131	0x26	38
132	0xe1	-31
133	0xcc	-52
134	0x38	56
135	0xd5	-43
136	0x32	50
137	0xb6	-74
138	0xed	-19
139	0x16	22
140	0xdc	-36
141	0xdf	-33
142	0xf2	-14
143	0xf0	-16
144	0x06	6
145	0x0f	15
146	0xb4	-76
147	0xe1	-31
148	0x33	51
149	0x4d	77
150	0xab	-85
151	0xbd	-67
152	0xef	-17
153	0x15	21
154	0x3d	61
155	0x4e	78
156	0x39	57
157	0xfe	-2
158	0x3b	59
159	0x32	50
160	0xbf	-65
161	0xb6	-74
162	0xdf	-33
163	0x34	52
164	0x20	32
165	0xf8	-8
166	0xc1	-63
167	0x13	19
168	0x90	-112
169	0x96	-106
170	0xc0	-64
171	0xc3	-61
172	0x47	71
173	0xb2	-78
174	0xeb	-21
175	0x1c	28
176	0xcd	-51
177	0xa3	-93
178	0x2a	42
179	0x43	67
180	0xad	-83
181	0x94	-108
182	0xbe	-66
183	0xda	-38
184	0x22	34
185	0xc3	-61
186	0x97	-105
187	0x1f	31
188	0x37	55
189	0xcb	-53
190	0x3b	59
191	0xa0	-96
192	0xd3	-45
193	0xe7	-25
194	0xf3	-13
195	0x65	101
196	0xfc	-4
197	0x02	2
198	0x17	23
199	0x9b	-101
200	0xe4	-28
201	0x20	32
202	0xd9	-39
203	0x16	22
204	0x25	37
205	0x1c	28
206	0xe8	-24
207	0x1a	26
208	0x00	0
209	0xb9	-71
210	0xa6	-90
211	0x26	38
212	0xfd	-3
213	0x47	71
214	0x19	25
215	0x20	32
216	0xb8	-72
217	0x96	-106
218	0x81	-127
219	0xa2	-94
220	0xd4	-44
221	0xd1	-47
222	0x1e	30
223	0xeb	-21
224	0xde	-34
225	0xe0	-32
226	0xc4	-60
227	0xd3	-45
228	0xce	-50
229	0xb9	-71
230	0x4e	78
231	0xc1	-63
232	0x3d	61
233	0xd9	-39
234	0xb9	-71
235	0x3a	58
236	0xa9	-87
237	0x04	4
238	0x18	24
239	0xa0	-96
240	0xb9	-71
241	0xcb	-53
242	0xd8	-40
243	0xda	-38
244	0x16	22
245	0x38	56
246	0x21	33
247	0xda	-38
248	0xcb	-53
249	0x3b	59
250	0xe8	-24
251	0xa9	-87
252	0x21	33
253	0x9d	-99
254	0x99	-103
255	0x5f	95

tfl.pseudo_qconst20 i1 [80, 1, 1, 160]
0	0xcb	-53
1	0x52	82
2	0xdc	-36
3	0x5d	93
4	0xac	-84
5	0xba	-70
6	0x94	-108
7	0xb9	-71
8	0xbf	-65
9	0x29	41
10	0x15	21
11	0xda	-38
12	0xfa	-6
13	0x0a	10
14	0xb4	-76
15	0x20	32
16	0x02	2
17	0xfc	-4
18	0xce	-50
19	0x37	55
20	0x42	66
21	0xae	-82
22	0xbb	-69
23	0x19	25
24	0xbb	-69
25	0x15	21
26	0x90	-112
27	0x81	-127
28	0x1c	28
29	0x1f	31
30	0x0e	14
31	0xa8	-88
32	0xa4	-92
33	0xe0	-32
34	0xb0	-80
35	0x2b	43
36	0x99	-103
37	0xce	-50
38	0x08	8
39	0x8f	-113
40	0x04	4
41	0xa8	-88
42	0x2a	42
43	0xa7	-89
44	0xce	-50
45	0x2f	47
46	0xa7	-89
47	0xa9	-87
48	0xf4	-12
49	0xa2	-94
50	0xa0	-96
51	0xee	-18
52	0x2a	42
53	0x62	98
54	0x11	17
55	0x59	89
56	0xc9	-55
57	0xf2	-14
58	0xcf	-49
59	0xf0	-16
60	0xc2	-62
61	0xab	-85
62	0x46	70
63	0x10	16
64	0x07	7
65	0x25	37
66	0xb7	-73
67	0x2a	42
68	0x44	68
69	0x4c	76
70	0x9c	-100
71	0x2c	44
72	0xd9	-39
73	0x5e	94
74	0x64	100
75	0x2d	45
76	0x31	49
77	0x00	0
78	0xe7	-25
79	0x9b	-101
80	0x4b	75
81	0x0a	10
82	0x22	34
83	0xa0	-96
84	0x69	105
85	0x36	54
86	0xa5	-91
87	0xda	-38
88	0xed	-19
89	0x42	66
90	0xb0	-80
91	0xb9	-71
92	0xbd	-67
93	0xbf	-65
94	0x52	82
95	0xec	-20
96	0x41	65
97	0x48	72
98	0x28	40
99	0xd9	-39
100	0xd8	-40
101	0xc9	-55
102	0x14	20
103	0xb5	-75
104	0x37	55
105	0xd7	-41
106	0xca	-54
107	0x57	87
108	0xda	-38
109	0x3f	63
110	0xee	-18
111	0xa6	-90
112	0x02	2
113	0x2b	43
114	0xe6	-26
115	0xb4	-76
116	0xc9	-55
117	0xa3	-93
118	0xad	-83
119	0x1a	26
120	0xac	-84
121	0x60	96
122	0xcd	-51
123	0x3e	62
124	0xd7	-41
125	0xac	-84
126	0x9d	-99
127	0xfe	-2
128	0x48	72
129	0xba	-70
130	0xd8	-40
131	0xa3	-93
132	0x35	53
133	0x13	19
134	0x04	4
135	0x46	70
136	0xac	-84
137	0xeb	-21
138	0x45	69
139	0x0f	15
140	0x5b	91
141	0x38	56
142	0xc1	-63
143	0x57	87
144	0x3c	60
145	0x52	82
146	0x09	9
147	0xb3	-77
148	0x35	53
149	0x34	52
150	0x37	55
151	0xcf	-49
152	0xee	-18
153	0x45	69
154	0xd8	-40
155	0x33	51
156	0x9f	-97
157	0x62	98
158	0xa0	-96
159	0x05	5
160	0x9b	-101
161	0xec	-20
162	0x30	48
163	0x47	71
164	0x8b	-117
165	0x4f	79
166	0x1b	27
167	0xe4	-28
168	0xd3	-45
169	0x98	-104
170	0x52	82
171	0x44	68
172	0x04	4
173	0xf2	-14
174	0xf7	-9
175	0xee	-18
176	0xf9	-7
177	0x39	57
178	0xb5	-75
179	0xe0	-32
180	0x34	52
181	0x27	39
182	0x21	33
183	0x0b	11
184	0x1f	31
185	0xd0	-48
186	0xc6	-58
187	0x71	113
188	0x57	87
189	0x5f	95
190	0xd4	-44
191	0xac	-84
192	0xd1	-47
193	0x1b	27
194	0xbf	-65
195	0x0f	15
196	0x7c	124
197	0xee	-18
198	0xbf	-65
199	0x0b	11
200	0xd3	-45
201	0x0e	14
202	0x4f	79
203	0x2f	47
204	0xec	-20
205	0x12	18
206	0x36	54
207	0x57	87
208	0xd9	-39
209	0xee	-18
210	0x71	113
211	0x0f	15
212	0x83	-125
213	0x29	41
214	0x81	-127
215	0xbe	-66
216	0xad	-83
217	0xed	-19
218	0x6d	109
219	0x10	16
220	0xc4	-60
221	0x24	36
222	0x65	101
223	0xa3	-93
224	0x13	19
225	0x34	52
226	0x23	35
227	0xc3	-61
228	0xbb	-69
229	0xf2	-14
230	0x22	34
231	0xe4	-28
232	0x36	54
233	0x19	25
234	0x29	41
235	0x4e	78
236	0x14	20
237	0x3a	58
238	0xab	-85
239	0xad	-83
240	0x13	19
241	0xcc	-52
242	0xe0	-32
243	0xe8	-24
244	0x20	32
245	0xe3	-29
246	0xcb	-53
247	0xc3	-61
248	0xe8	-24
249	0xc7	-57
250	0xe4	-28
251	0xf3	-13
252	0xc8	-56
253	0xd7	-41
254	0x28	40
255	0x45	69

tfl.pseudo_qconst22 i1 [80, 3, 3, 80]
0	0xaf	-81
1	0xd4	-44
2	0x2c	44
3	0xb0	-80
4	0x49	73
5	0xe5	-27
6	0x02	2
7	0xdc	-36
8	0xe9	-23
9	0x1f	31
10	0x09	9
11	0xf1	-15
12	0x02	2
13	0x8b	-117
14	0x13	19
15	0x3a	58
16	0xf2	-14
17	0xc4	-60
18	0x1e	30
19	0xf4	-12
20	0xe5	-27
21	0x34	52
22	0xae	-82
23	0xde	-34
24	0xcb	-53
25	0x2e	46
26	0xbe	-66
27	0xc8	-56
28	0x41	65
29	0x0b	11
30	0xf7	-9
31	0x22	34
32	0x5f	95
33	0x12	18
34	0x14	20
35	0x29	41
36	0xa7	-89
37	0xe0	-32
38	0xda	-38
39	0xd7	-41
40	0x4c	76
41	0xd2	-46
42	0xbf	-65
43	0x1b	27
44	0xff	-1
45	0xb7	-73
46	0xa7	-89
47	0xc9	-55
48	0xfa	-6
49	0xd4	-44
50	0xd7	-41
51	0xad	-83
52	0xf6	-10
53	0x18	24
54	0xd1	-47
55	0xb8	-72
56	0x03	3
57	0xb7	-73
58	0xe9	-23
59	0x29	41
60	0x47	71
61	0x39	57
62	0xf0	-16
63	0xea	-22
64	0xa3	-93
65	0xef	-17
66	0xc5	-59
67	0xe0	-32
68	0xb4	-76
69	0xa5	-91
70	0x51	81
71	0x11	17
72	0x50	80
73	0x38	56
74	0xd9	-39
75	0x07	7
76	0x05	5
77	0x2e	46
78	0x27	39
79	0xfe	-2
80	0xc5	-59
81	0xce	-50
82	0xd6	-42
83	0x29	41
84	0x29	41
85	0x3b	59
86	0xab	-85
87	0x4b	75
88	0xed	-19
89	0x50	80
90	0xbd	-67
91	0x00	0
92	0x1b	27
93	0xa0	-96
94	0x42	66
95	0x2f	47
96	0x22	34
97	0xb1	-79
98	0xc4	-60
99	0x05	5
100	0x16	22
101	0xeb	-21
102	0x21	33
103	0xb8	-72
104	0x1c	28
105	0x17	23
106	0x2a	42
107	0x09	9
108	0x18	24
109	0x24	36
110	0xf7	-9
111	0xc4	-60
112	0xf5	-11
113	0x2a	42
114	0xcf	-49
115	0x4e	78
116	0xd5	-43
117	0x28	40
118	0x0c	12
119	0x47	71
120	0x2a	42
121	0xb7	-73
122	0xe8	-24
123	0x02	2
124	0xd3	-45
125	0x34	52
126	0x16	22
127	0xee	-18
128	0x3f	63
129	0xe8	-24
130	0x1b	27
131	0xde	-34
132	0x32	50
133	0xbd	-67
134	0x29	41
135	0x9f	-97
136	0x3a	58
137	0x10	16
138	0xaf	-81
139	0x3e	62
140	0x0b	11
141	0xc7	-57
142	0xb6	-74
143	0x0f	15
144	0xe2	-30
145	0x42	66
146	0x01	1
147	0xb6	-74
148	0xc3	-61
149	0xf2	-14
150	0xdf	-33
151	0xc9	-55
152	0xc9	-55
153	0xb7	-73
154	0xf8	-8
155	0x2a	42
156	0xc5	-59
157	0x1c	28
158	0x1d	29
159	0x17	23
160	0xc8	-56
161	0x0a	10
162	0x16	22
163	0xd9	-39
164	0x0e	14
165	0xc4	-60
166	0x28	40
167	0x41	65
168	0xb6	-74
169	0xc6	-58
170	0x66	102
171	0x06	6
172	0xce	-50
173	0xe2	-30
174	0xeb	-21
175	0xd2	-46
176	0xf5	-11
177	0x38	56
178	0x38	56
179	0x35	53
180	0x52	82
181	0xe5	-27
182	0xaa	-86
183	0x4d	77
184	0x23	35
185	0x1e	30
186	0xdd	-35
187	0xae	-82
188	0x16	22
189	0xff	-1
190	0x34	52
191	0xc4	-60
192	0xf1	-15
193	0x2b	43
194	0x44	68
195	0x57	87
196	0x3c	60
197	0xec	-20
198	0xf5	-11
199	0xe3	-29
200	0xf3	-13
201	0x32	50
202	0x4d	77
203	0xb2	-78
204	0xd8	-40
205	0x4f	79
206	0x3b	59
207	0xc5	-59
208	0x1f	31
209	0x8c	-116
210	0x4a	74
211	0x03	3
212	0x22	34
213	0xa2	-94
214	0xe9	-23
215	0xeb	-21
216	0xa3	-93
217	0xe9	-23
218	0x2c	44
219	0x13	19
220	0xe8	-24
221	0xed	-19
222	0x31	49
223	0xb6	-74
224	0x94	-108
225	0x1a	26
226	0xce	-50
227	0x15	21
228	0x2a	42
229	0xa7	-89
230	0x01	1
231	0xab	-85
232	0x05	5
233	0x1b	27
234	0x33	51
235	0xda	-38
236	0xdd	-35
237	0xa4	-92
238	0xe2	-30
239	0x25	37
240	0x33	51
241	0xfd	-3
242	0xd9	-39
243	0x5c	92
244	0x55	85
245	0x0c	12
246	0x16	22
247	0xa2	-94
248	0x1d	29
249	0xb6	-74
250	0xe4	-28
251	0xbf	-65
252	0xf5	-11
253	0xcf	-49
254	0x4a	74
255	0xd7	-41

tfl.pseudo_qconst24 i1 [80, 1, 1, 80]
0	0xfe	-2
1	0x41	65
2	0xd0	-48
3	0xcf	-49
4	0xc5	-59
5	0x65	101
6	0x12	18
7	0xb5	-75
8	0xcf	-49
9	0x44	68
10	0x47	71
11	0x26	38
12	0x46	70
13	0x36	54
14	0x4c	76
15	0x0a	10
16	0xae	-82
17	0x49	73
18	0xad	-83
19	0xbc	-68
20	0xdf	-33
21	0xc8	-56
22	0x4b	75
23	0x7f	127
24	0xbb	-69
25	0x9f	-97
26	0x29	41
27	0xc3	-61
28	0xb5	-75
29	0xdf	-33
30	0xdf	-33
31	0x3e	62
32	0xcf	-49
33	0xf7	-9
34	0xeb	-21
35	0xd1	-47
36	0x11	17
37	0xa8	-88
38	0xe8	-24
39	0x37	55
40	0x1b	27
41	0xbf	-65
42	0x0e	14
43	0xcb	-53
44	0xd0	-48
45	0x40	64
46	0x48	72
47	0xae	-82
48	0x01	1
49	0xc6	-58
50	0x3b	59
51	0x97	-105
52	0xf0	-16
53	0x21	33
54	0xae	-82
55	0x09	9
56	0x0a	10
57	0x5b	91
58	0xbe	-66
59	0xa1	-95
60	0x52	82
61	0xfe	-2
62	0xfe	-2
63	0x64	100
64	0xf8	-8
65	0x9e	-98
66	0xe0	-32
67	0x68	104
68	0xb9	-71
69	0xf3	-13
70	0xf9	-7
71	0x07	7
72	0xdc	-36
73	0x4e	78
74	0xb4	-76
75	0x1a	26
76	0xcd	-51
77	0x4f	79
78	0x24	36
79	0xd3	-45
80	0xf2	-14
81	0xf2	-14
82	0xe2	-30
83	0xb7	-73
84	0x78	120
85	0xfe	-2
86	0xfb	-5
87	0xd5	-43
88	0xe7	-25
89	0x6c	108
90	0x7f	127
91	0xb6	-74
92	0x3c	60
93	0x63	99
94	0x87	-121
95	0x5a	90
96	0x64	100
97	0xef	-17
98	0x10	16
99	0x20	32
100	0xb4	-76
101	0x23	35
102	0xf6	-10
103	0x8f	-113
104	0xe4	-28
105	0x89	-119
106	0x33	51
107	0xaf	-81
108	0x90	-112
109	0x97	-105
110	0x7a	122
111	0x8f	-113
112	0x65	101
113	0x63	99
114	0x0a	10
115	0x34	52
116	0xc6	-58
117	0xfa	-6
118	0xc6	-58
119	0xc0	-64
120	0xf3	-13
121	0xb5	-75
122	0xa1	-95
123	0xa9	-87
124	0x06	6
125	0xea	-22
126	0xcb	-53
127	0x29	41
128	0x9d	-99
129	0xb5	-75
130	0xec	-20
131	0x4d	77
132	0x2b	43
133	0xe0	-32
134	0x8a	-118
135	0xed	-19
136	0xbc	-68
137	0xe5	-27
138	0xa1	-95
139	0xf9	-7
140	0xf8	-8
141	0xc7	-57
142	0x0a	10
143	0x01	1
144	0x3e	62
145	0x7c	124
146	0xb5	-75
147	0x95	-107
148	0xb1	-79
149	0xa7	-89
150	0x11	17
151	0xd0	-48
152	0xd6	-42
153	0xbd	-67
154	0x69	105
155	0xfe	-2
156	0xf4	-12
157	0xe6	-26
158	0x90	-112
159	0x96	-106
160	0xd3	-45
161	0x05	5
162	0x34	52
163	0xfb	-5
164	0x30	48
165	0xfd	-3
166	0xe3	-29
167	0x34	52
168	0x34	52
169	0xc1	-63
170	0xde	-34
171	0x20	32
172	0xba	-70
173	0x7f	127
174	0x01	1
175	0xa2	-94
176	0xf2	-14
177	0x14	20
178	0xb6	-74
179	0x86	-122
180	0xe4	-28
181	0xa8	-88
182	0xf7	-9
183	0xb5	-75
184	0x8c	-116
185	0x4f	79
186	0x31	49
187	0xfc	-4
188	0x47	71
189	0x93	-109
190	0xc2	-62
191	0x92	-110
192	0x93	-109
193	0x0a	10
194	0xaf	-81
195	0x34	52
196	0xe3	-29
197	0xbb	-69
198	0x5d	93
199	0x74	116
200	0x7e	126
201	0xcc	-52
202	0x4e	78
203	0x6d	109
204	0x07	7
205	0x85	-123
206	0x9f	-97
207	0x8d	-115
208	0xe1	-31
209	0x10	16
210	0xe3	-29
211	0xae	-82
212	0x72	114
213	0xdf	-33
214	0x3e	62
215	0x10	16
216	0xc0	-64
217	0x91	-111
218	0x67	103
219	0x31	49
220	0xcf	-49
221	0x3f	63
222	0x4c	76
223	0x0c	12
224	0x3e	62
225	0x65	101
226	0x99	-103
227	0x4d	77
228	0x6a	106
229	0xe2	-30
230	0x3d	61
231	0xf6	-10
232	0xb8	-72
233	0x50	80
234	0x95	-107
235	0x46	70
236	0xb6	-74
237	0xfd	-3
238	0x3d	61
239	0xe5	-27
240	0x5d	93
241	0xf3	-13
242	0x55	85
243	0x1c	28
244	0x91	-111
245	0xd1	-47
246	0xf6	-10
247	0xed	-19
248	0x1b	27
249	0xa3	-93
250	0x0d	13
251	0xa4	-92
252	0xb0	-80
253	0x30	48
254	0x40	64
255	0x9a	-102

tfl.pseudo_qconst26 i1 [80, 1, 1, 160]
0	0xd4	-44
1	0x37	55
2	0xea	-22
3	0xa6	-90
4	0x20	32
5	0x3a	58
6	0x62	98
7	0x8d	-115
8	0x1a	26
9	0x35	53
10	0xd8	-40
11	0x90	-112
12	0x1f	31
13	0x5c	92
14	0x72	114
15	0xd4	-44
16	0xec	-20
17	0xac	-84
18	0x86	-122
19	0xd6	-42
20	0xd5	-43
21	0x44	68
22	0xa6	-90
23	0xc3	-61
24	0x8b	-117
25	0x30	48
26	0x2b	43
27	0x61	97
28	0xd2	-46
29	0x48	72
30	0x59	89
31	0x60	96
32	0xbe	-66
33	0xae	-82
34	0xa7	-89
35	0x9a	-102
36	0x02	2
37	0xd0	-48
38	0xef	-17
39	0x8c	-116
40	0xa7	-89
41	0xa4	-92
42	0x57	87
43	0x4a	74
44	0xdb	-37
45	0x6f	111
46	0x61	97
47	0x3d	61
48	0xed	-19
49	0xac	-84
50	0xba	-70
51	0xad	-83
52	0x34	52
53	0x2a	42
54	0x03	3
55	0x26	38
56	0x0a	10
57	0x6d	109
58	0x65	101
59	0x31	49
60	0xff	-1
61	0x16	22
62	0x49	73
63	0x35	53
64	0x6a	106
65	0x77	119
66	0xbf	-65
67	0x4f	79
68	0xcb	-53
69	0x62	98
70	0x2c	44
71	0xa0	-96
72	0x45	69
73	0xf8	-8
74	0xb5	-75
75	0xa0	-96
76	0x67	103
77	0xff	-1
78	0xae	-82
79	0x06	6
80	0xdd	-35
81	0xec	-20
82	0xc4	-60
83	0xa7	-89
84	0xec	-20
85	0xda	-38
86	0xd9	-39
87	0x49	73
88	0x58	88
89	0x9d	-99
90	0x6d	109
91	0x91	-111
92	0x63	99
93	0x25	37
94	0x13	19
95	0x59	89
96	0xb3	-77
97	0xb5	-75
98	0x28	40
99	0xac	-84
100	0x47	71
101	0x1c	28
102	0x98	-104
103	0xe5	-27
104	0xa4	-92
105	0x4d	77
106	0x68	104
107	0xbf	-65
108	0x57	87
109	0xe6	-26
110	0x7f	127
111	0x36	54
112	0xcf	-49
113	0x84	-124
114	0x14	20
115	0xc0	-64
116	0xe0	-32
117	0x36	54
118	0xf2	-14
119	0x5f	95
120	0x6b	107
121	0x90	-112
122	0xc9	-55
123	0x70	112
124	0xc4	-60
125	0x24	36
126	0xd7	-41
127	0x71	113
128	0xce	-50
129	0x0f	15
130	0xaa	-86
131	0xbf	-65
132	0x03	3
133	0x88	-120
134	0xbe	-66
135	0xa2	-94
136	0xa9	-87
137	0xe7	-25
138	0x25	37
139	0xb3	-77
140	0x69	105
141	0x09	9
142	0x4f	79
143	0xc4	-60
144	0xd8	-40
145	0xcd	-51
146	0x24	36
147	0xf2	-14
148	0x55	85
149	0x4e	78
150	0xb1	-79
151	0xd2	-46
152	0xbf	-65
153	0x8f	-113
154	0xd6	-42
155	0xdb	-37
156	0x11	17
157	0x49	73
158	0xd9	-39
159	0x66	102
160	0xbd	-67
161	0xc8	-56
162	0x0e	14
163	0x67	103
164	0xd5	-43
165	0xc5	-59
166	0x68	104
167	0xad	-83
168	0x96	-106
169	0xd0	-48
170	0x74	116
171	0xaa	-86
172	0xfe	-2
173	0xf1	-15
174	0xf6	-10
175	0x0f	15
176	0xa8	-88
177	0xee	-18
178	0x6f	111
179	0xeb	-21
180	0x27	39
181	0x5e	94
182	0x09	9
183	0x3e	62
184	0x77	119
185	0xb8	-72
186	0xdd	-35
187	0x4c	76
188	0x26	38
189	0xe2	-30
190	0x6c	108
191	0xa3	-93
192	0xe2	-30
193	0xcd	-51
194	0x03	3
195	0xc0	-64
196	0xab	-85
197	0xec	-20
198	0xfc	-4
199	0x71	113
200	0x14	20
201	0xcb	-53
202	0x15	21
203	0x28	40
204	0x3d	61
205	0x5c	92
206	0x19	25
207	0x5b	91
208	0xc1	-63
209	0x03	3
210	0xc0	-64
211	0x90	-112
212	0x69	105
213	0x0e	14
214	0xe9	-23
215	0x27	39
216	0xf5	-11
217	0x7f	127
218	0xd3	-45
219	0x56	86
220	0x21	33
221	0xe6	-26
222	0xaa	-86
223	0xe2	-30
224	0x26	38
225	0xbd	-67
226	0x07	7
227	0x42	66
228	0xbc	-68
229	0xf7	-9
230	0xd8	-40
231	0x39	57
232	0xb3	-77
233	0x3d	61
234	0x09	9
235	0x8e	-114
236	0x22	34
237	0xb2	-78
238	0xbc	-68
239	0xf6	-10
240	0xe1	-31
241	0x23	35
242	0x67	103
243	0x94	-108
244	0xa3	-93
245	0xef	-17
246	0xdd	-35
247	0x64	100
248	0xce	-50
249	0xb5	-75
250	0x4b	75
251	0x71	113
252	0x1f	31
253	0x45	69
254	0xd2	-46
255	0x9b	-101

tfl.pseudo_qconst28 i1 [80, 3, 3, 80]
0	0xeb	-21
1	0x23	35
2	0x10	16
3	0xbc	-68
4	0xf9	-7
5	0xa3	-93
6	0xc6	-58
7	0x48	72
8	0x4c	76
9	0x39	57
10	0x21	33
11	0xfc	-4
12	0x9f	-97
13	0xe0	-32
14	0x5c	92
15	0xb6	-74
16	0x45	69
17	0x22	34
18	0x54	84
19	0xb9	-71
20	0xab	-85
21	0x06	6
22	0x2a	42
23	0x0b	11
24	0x4c	76
25	0xc2	-62
26	0xb0	-80
27	0xb5	-75
28	0xd1	-47
29	0x94	-108
30	0x07	7
31	0x2a	42
32	0xd5	-43
33	0x23	35
34	0x42	66
35	0xb1	-79
36	0x15	21
37	0x29	41
38	0x4e	78
39	0xdc	-36
40	0x44	68
41	0xd4	-44
42	0xcb	-53
43	0xb3	-77
44	0xec	-20
45	0x2f	47
46	0x48	72
47	0x34	52
48	0x06	6
49	0x0a	10
50	0x1b	27
51	0xc3	-61
52	0xd9	-39
53	0xa9	-87
54	0x1a	26
55	0xe7	-25
56	0xf3	-13
57	0x23	35
58	0x3d	61
59	0x4f	79
60	0xf0	-16
61	0xf7	-9
62	0xd0	-48
63	0xc5	-59
64	0xb9	-71
65	0xc2	-62
66	0xab	-85
67	0x18	24
68	0x08	8
69	0x40	64
70	0xd6	-42
71	0xf0	-16
72	0x4e	78
73	0x00	0
74	0xe3	-29
75	0xd2	-46
76	0x25	37
77	0x04	4
78	0xf8	-8
79	0x1d	29
80	0xab	-85
81	0x3b	59
82	0x3c	60
83	0xb7	-73
84	0xf4	-12
85	0x53	83
86	0xbb	-69
87	0x28	40
88	0xd0	-48
89	0xeb	-21
90	0xf5	-11
91	0x22	34
92	0x00	0
93	0xc2	-62
94	0x09	9
95	0xb8	-72
96	0x00	0
97	0x17	23
98	0xbf	-65
99	0xc8	-56
100	0xaf	-81
101	0xb4	-76
102	0xc9	-55
103	0x05	5
104	0x47	71
105	0xf2	-14
106	0xcd	-51
107	0x38	56
108	0x40	64
109	0x4b	75
110	0xe8	-24
111	0xa8	-88
112	0x29	41
113	0x1e	30
114	0xd1	-47
115	0xf3	-13
116	0x01	1
117	0xb6	-74
118	0xbb	-69
119	0x32	50
120	0x49	73
121	0x4b	75
122	0x15	21
123	0xe3	-29
124	0xbe	-66
125	0xbe	-66
126	0xaf	-81
127	0xce	-50
128	0x1b	27
129	0x39	57
130	0xdc	-36
131	0x24	36
132	0x36	54
133	0xc4	-60
134	0x06	6
135	0x07	7
136	0xe1	-31
137	0x52	82
138	0xf0	-16
139	0x9f	-97
140	0x5b	91
141	0x3f	63
142	0xbd	-67
143	0x03	3
144	0x25	37
145	0xde	-34
146	0xbb	-69
147	0x57	87
148	0xc2	-62
149	0x38	56
150	0xbc	-68
151	0x41	65
152	0xe4	-28
153	0xd2	-46
154	0x07	7
155	0xbf	-65
156	0xf8	-8
157	0x3a	58
158	0xf7	-9
159	0xb6	-74
160	0xa8	-88
161	0xe5	-27
162	0x31	49
163	0xc5	-59
164	0xc1	-63
165	0xea	-22
166	0x17	23
167	0x5a	90
168	0xb9	-71
169	0xdd	-35
170	0x24	36
171	0xe4	-28
172	0x14	20
173	0xcd	-51
174	0x14	20
175	0xc7	-57
176	0x50	80
177	0xc4	-60
178	0xf6	-10
179	0x55	85
180	0x10	16
181	0x3e	62
182	0xce	-50
183	0x32	50
184	0xea	-22
185	0x47	71
186	0x26	38
187	0xea	-22
188	0xce	-50
189	0xe4	-28
190	0xc6	-58
191	0x31	49
192	0xb1	-79
193	0xd4	-44
194	0xd7	-41
195	0x16	22
196	0xb0	-80
197	0xe8	-24
198	0xb6	-74
199	0x0d	13
200	0xc3	-61
201	0xb5	-75
202	0xc0	-64
203	0xd8	-40
204	0xc6	-58
205	0xe5	-27
206	0xda	-38
207	0x24	36
208	0x0f	15
209	0x2b	43
210	0xae	-82
211	0xcc	-52
212	0xe6	-26
213	0xd4	-44
214	0xf4	-12
215	0xcd	-51
216	0xe4	-28
217	0xdc	-36
218	0xbc	-68
219	0xaf	-81
220	0x1f	31
221	0xcd	-51
222	0x42	66
223	0xe0	-32
224	0x3a	58
225	0x18	24
226	0xda	-38
227	0xd8	-40
228	0xfa	-6
229	0x49	73
230	0xce	-50
231	0xc4	-60
232	0x38	56
233	0x58	88
234	0x35	53
235	0x42	66
236	0x1b	27
237	0x17	23
238	0x2e	46
239	0x29	41
240	0x15	21
241	0xe9	-23
242	0xf6	-10
243	0xe1	-31
244	0x1d	29
245	0x07	7
246	0x16	22
247	0xce	-50
248	0xfe	-2
249	0x3d	61
250	0x0b	11
251	0x1f	31
252	0xb9	-71
253	0xcd	-51
254	0xf1	-15
255	0xf8	-8

tfl.pseudo_qconst30 i1 [80, 1, 1, 80]
0	0xf2	-14
1	0xb4	-76
2	0x7f	127
3	0xe8	-24
4	0x43	67
5	0x0e	14
6	0xf3	-13
7	0xf4	-12
8	0x11	17
9	0x69	105
10	0xf0	-16
11	0xd5	-43
12	0x1e	30
13	0xef	-17
14	0xf0	-16
15	0x0a	10
16	0x6c	108
17	0x31	49
18	0xdf	-33
19	0xf7	-9
20	0x1f	31
21	0xb5	-75
22	0xf0	-16
23	0xdd	-35
24	0xc9	-55
25	0xaf	-81
26	0xdf	-33
27	0xf4	-12
28	0xed	-19
29	0xdf	-33
30	0xc6	-58
31	0xc5	-59
32	0xda	-38
33	0xc4	-60
34	0xc4	-60
35	0x25	37
36	0xd4	-44
37	0xf2	-14
38	0xc6	-58
39	0xb8	-72
40	0x39	57
41	0x2a	42
42	0xce	-50
43	0x06	6
44	0xed	-19
45	0xd8	-40
46	0xee	-18
47	0xde	-34
48	0x13	19
49	0x49	73
50	0xc0	-64
51	0xe2	-30
52	0x09	9
53	0x3d	61
54	0x00	0
55	0xcd	-51
56	0x24	36
57	0xee	-18
58	0xdf	-33
59	0x01	1
60	0x2d	45
61	0x3d	61
62	0x29	41
63	0xdf	-33
64	0x2c	44
65	0xcb	-53
66	0xd8	-40
67	0xc9	-55
68	0xfa	-6
69	0x47	71
70	0xb2	-78
71	0xc0	-64
72	0xb0	-80
73	0x3a	58
74	0x39	57
75	0xc6	-58
76	0xfd	-3
77	0x33	51
78	0x36	54
79	0xbf	-65
80	0x7e	126
81	0x36	54
82	0xfe	-2
83	0xd3	-45
84	0x0a	10
85	0x69	105
86	0x93	-109
87	0xd0	-48
88	0x5e	94
89	0xbf	-65
90	0x66	102
91	0x17	23
92	0xd8	-40
93	0x31	49
94	0x04	4
95	0xd5	-43
96	0x5c	92
97	0x6f	111
98	0xd3	-45
99	0xcc	-52
100	0xee	-18
101	0xa9	-87
102	0xa7	-89
103	0x2a	42
104	0x81	-127
105	0x52	82
106	0x13	19
107	0xb2	-78
108	0x63	99
109	0x1c	28
110	0x52	82
111	0x52	82
112	0xee	-18
113	0x4f	79
114	0xe0	-32
115	0x51	81
116	0xe3	-29
117	0x88	-120
118	0x6a	106
119	0x48	72
120	0x7a	122
121	0xeb	-21
122	0x26	38
123	0xb9	-71
124	0xbb	-69
125	0xa8	-88
126	0x97	-105
127	0x4e	78
128	0x32	50
129	0x0a	10
130	0xf4	-12
131	0x0f	15
132	0x91	-111
133	0xff	-1
134	0xbb	-69
135	0xbf	-65
136	0xbf	-65
137	0x03	3
138	0x73	115
139	0x78	120
140	0x4a	74
141	0x29	41
142	0x0a	10
143	0xf3	-13
144	0x14	20
145	0x6e	110
146	0x84	-124
147	0x48	72
148	0xef	-17
149	0xe7	-25
150	0x3e	62
151	0x02	2
152	0x69	105
153	0x40	64
154	0x75	117
155	0x1f	31
156	0x38	56
157	0x59	89
158	0x8f	-113
159	0xff	-1
160	0x8a	-118
161	0x0c	12
162	0xd9	-39
163	0xc4	-60
164	0x92	-110
165	0x41	65
166	0xb4	-76
167	0xc7	-57
168	0x66	102
169	0xd2	-46
170	0xb1	-79
171	0x9d	-99
172	0x1f	31
173	0x95	-107
174	0x81	-127
175	0x48	72
176	0xc3	-61
177	0x0c	12
178	0x25	37
179	0xa9	-87
180	0xa9	-87
181	0x70	112
182	0xb3	-77
183	0xe4	-28
184	0xe4	-28
185	0x6c	108
186	0xf0	-16
187	0x68	104
188	0x26	38
189	0xdc	-36
190	0x31	49
191	0x73	115
192	0xa1	-95
193	0x49	73
194	0xfa	-6
195	0x64	100
196	0x66	102
197	0x29	41
198	0xe0	-32
199	0x3a	58
200	0xfc	-4
201	0x35	53
202	0x30	48
203	0xb8	-72
204	0x89	-119
205	0xeb	-21
206	0x95	-107
207	0x1b	27
208	0x55	85
209	0x1e	30
210	0xae	-82
211	0x36	54
212	0x24	36
213	0x12	18
214	0x93	-109
215	0xef	-17
216	0x09	9
217	0x7b	123
218	0xc8	-56
219	0xbd	-67
220	0x19	25
221	0x31	49
222	0xea	-22
223	0xce	-50
224	0xb2	-78
225	0x0d	13
226	0x53	83
227	0x4d	77
228	0x49	73
229	0x96	-106
230	0x3d	61
231	0xe6	-26
232	0x2a	42
233	0x4c	76
234	0x23	35
235	0x71	113
236	0xda	-38
237	0x2c	44
238	0x25	37
239	0x2b	43
240	0xf8	-8
241	0x08	8
242	0x14	20
243	0x1b	27
244	0x30	48
245	0x9a	-102
246	0xcc	-52
247	0x33	51
248	0x8e	-114
249	0xd9	-39
250	0x69	105
251	0x44	68
252	0x71	113
253	0x3e	62
254	0xae	-82
255	0x7f	127

tfl.pseudo_qconst32 i1 [40, 1, 1, 80]
0	0x1a	26
1	0x4f	79
2	0xc2	-62
3	0xce	-50
4	0x45	69
5	0x09	9
6	0x81	-127
7	0x23	35
8	0x42	66
9	0x5d	93
10	0xed	-19
11	0x5b	91
12	0xd0	-48
13	0xd9	-39
14	0xb4	-76
15	0xd1	-47
16	0xe4	-28
17	0xb4	-76
18	0x39	57
19	0xbb	-69
20	0x0f	15
21	0x13	19
22	0x41	65
23	0x55	85
24	0x37	55
25	0xc2	-62
26	0x17	23
27	0xd4	-44
28	0x1d	29
29	0xbf	-65
30	0x03	3
31	0xb6	-74
32	0x5d	93
33	0xb6	-74
34	0x45	69
35	0xeb	-21
36	0x59	89
37	0xa6	-90
38	0x5b	91
39	0xcf	-49
40	0xe4	-28
41	0xa9	-87
42	0xc4	-60
43	0xb6	-74
44	0x1e	30
45	0xc6	-58
46	0xb9	-71
47	0xfb	-5
48	0xc0	-64
49	0x18	24
50	0x53	83
51	0x52	82
52	0xef	-17
53	0x20	32
54	0xd5	-43
55	0xb7	-73
56	0xd3	-45
57	0xd8	-40
58	0xaa	-86
59	0x5e	94
60	0xa8	-88
61	0x21	33
62	0x4e	78
63	0xcd	-51
64	0xc6	-58
65	0xee	-18
66	0xd8	-40
67	0xca	-54
68	0x21	33
69	0xfc	-4
70	0xe4	-28
71	0xc9	-55
72	0xa3	-93
73	0x29	41
74	0xf8	-8
75	0xf6	-10
76	0x39	57
77	0x2c	44
78	0x38	56
79	0xc8	-56
80	0xb6	-74
81	0xfb	-5
82	0x13	19
83	0x55	85
84	0xf8	-8
85	0xc4	-60
86	0xa7	-89
87	0x39	57
88	0x3d	61
89	0x36	54
90	0x8a	-118
91	0x08	8
92	0xc1	-63
93	0xa3	-93
94	0x6f	111
95	0xd7	-41
96	0xec	-20
97	0xea	-22
98	0xdf	-33
99	0x49	73
100	0x1a	26
101	0x45	69
102	0x5a	90
103	0x4a	74
104	0x10	16
105	0x5b	91
106	0x66	102
107	0x1d	29
108	0xb1	-79
109	0x9c	-100
110	0xbf	-65
111	0xf7	-9
112	0x0f	15
113	0x5e	94
114	0x15	21
115	0x07	7
116	0x62	98
117	0xec	-20
118	0x2a	42
119	0x3d	61
120	0x05	5
121	0xe3	-29
122	0xc2	-62
123	0x81	-127
124	0xc7	-57
125	0xfe	-2
126	0x43	67
127	0xe9	-23
128	0xe1	-31
129	0x43	67
130	0x9a	-102
131	0xe1	-31
132	0x43	67
133	0x05	5
134	0xfc	-4
135	0x33	51
136	0xeb	-21
137	0xb8	-72
138	0xef	-17
139	0xc6	-58
140	0xd5	-43
141	0xf2	-14
142	0xa2	-94
143	0xb5	-75
144	0x03	3
145	0x9a	-102
146	0x04	4
147	0xb9	-71
148	0x51	81
149	0x33	51
150	0x35	53
151	0xe1	-31
152	0xd5	-43
153	0x06	6
154	0x5f	95
155	0xe1	-31
156	0x3d	61
157	0xb7	-73
158	0xc3	-61
159	0x0c	12
160	0x48	72
161	0xd9	-39
162	0x59	89
163	0xdd	-35
164	0xc4	-60
165	0x4a	74
166	0xb4	-76
167	0xa7	-89
168	0xdd	-35
169	0x03	3
170	0xb8	-72
171	0xd3	-45
172	0xd4	-44
173	0xc0	-64
174	0xde	-34
175	0xaa	-86
176	0x16	22
177	0x13	19
178	0xf2	-14
179	0x60	96
180	0x5d	93
181	0xec	-20
182	0x18	24
183	0x05	5
184	0xe6	-26
185	0x5a	90
186	0x62	98
187	0x26	38
188	0x51	81
189	0x81	-127
190	0x6a	106
191	0x26	38
192	0xef	-17
193	0x5e	94
194	0xaf	-81
195	0x35	53
196	0xc7	-57
197	0x46	70
198	0x2a	42
199	0x1c	28
200	0xeb	-21
201	0x18	24
202	0x03	3
203	0x0e	14
204	0x1e	30
205	0xf2	-14
206	0xc7	-57
207	0x3a	58
208	0xf1	-15
209	0x5e	94
210	0x48	72
211	0x35	53
212	0x14	20
213	0xc9	-55
214	0xef	-17
215	0x44	68
216	0x07	7
217	0x40	64
218	0x50	80
219	0x5a	90
220	0x56	86
221	0x23	35
222	0xd5	-43
223	0x54	84
224	0x49	73
225	0xc6	-58
226	0xd8	-40
227	0xa5	-91
228	0x3d	61
229	0x31	49
230	0xc4	-60
231	0x96	-106
232	0x21	33
233	0x54	84
234	0x24	36
235	0x30	48
236	0xca	-54
237	0x95	-107
238	0x1d	29
239	0x29	41
240	0xc5	-59
241	0xf0	-16
242	0xc6	-58
243	0x1b	27
244	0x2d	45
245	0x18	24
246	0xc7	-57
247	0x51	81
248	0x63	99
249	0x25	37
250	0x30	48
251	0xf5	-11
252	0x31	49
253	0x0a	10
254	0xa8	-88
255	0x5a	90
