Benchmarking/modeles_yolo/256_pruned/best-int8_256_pruned.tflite (tflite, 855848 bytes, 63 tensors)

tfl.pseudo_qconst2 i1 [1, 1024, 1, 2] scale=0.12156863 zero_point=-124
000000 80 80 88 80 90 80 99 80 a1 80 a9 80 b1 80 b9 80
       -0.4862745 -0.4862745 0.4862745 -0.4862745 1.4588236 -0.4862745 2.552941 -0.4862745 3.5254903 -0.4862745 4.4980392 -0.4862745 5.470588 -0.4862745 6.443137 -0.4862745
000010 c2 80 ca 80 d2 80 da 80 e3 80 eb 80 f3 80 fb 80
       7.537255 -0.4862745 8.509804 -0.4862745 9.482353 -0.4862745 10.454902 -0.4862745 11.54902 -0.4862745 12.521568 -0.4862745 13.494118 -0.4862745 14.466666 -0.4862745
000020 03 80 0c 80 14 80 1c 80 24 80 2d 80 35 80 3d 80
       15.439216 -0.4862745 16.533333 -0.4862745 17.505882 -0.4862745 18.478432 -0.4862745 19.450981 -0.4862745 20.545097 -0.4862745 21.517647 -0.4862745 22.490196 -0.4862745
000030 45 80 4e 80 56 80 5e 80 66 80 6e 80 77 80 7f 80
       23.462746 -0.4862745 24.556862 -0.4862745 25.529411 -0.4862745 26.50196 -0.4862745 27.47451 -0.4862745 28.44706 -0.4862745 29.541176 -0.4862745 30.513725 -0.4862745
000040 80 88 88 88 90 88 99 88 a1 88 a9 88 b1 88 b9 88
       -0.4862745 0.4862745 0.4862745 0.4862745 1.4588236 0.4862745 2.552941 0.4862745 3.5254903 0.4862745 4.4980392 0.4862745 5.470588 0.4862745 6.443137 0.4862745
000050 c2 88 ca 88 d2 88 da 88 e3 88 eb 88 f3 88 fb 88
       7.537255 0.4862745 8.509804 0.4862745 9.482353 0.4862745 10.454902 0.4862745 11.54902 0.4862745 12.521568 0.4862745 13.494118 0.4862745 14.466666 0.4862745
000060 03 88 0c 88 14 88 1c 88 24 88 2d 88 35 88 3d 88
       15.439216 0.4862745 16.533333 0.4862745 17.505882 0.4862745 18.478432 0.4862745 19.450981 0.4862745 20.545097 0.4862745 21.517647 0.4862745 22.490196 0.4862745
000070 45 88 4e 88 56 88 5e 88 66 88 6e 88 77 88 7f 88
       23.462746 0.4862745 24.556862 0.4862745 25.529411 0.4862745 26.50196 0.4862745 27.47451 0.4862745 28.44706 0.4862745 29.541176 0.4862745 30.513725 0.4862745
000080 80 90 88 90 90 90 99 90 a1 90 a9 90 b1 90 b9 90
       -0.4862745 1.4588236 0.4862745 1.4588236 1.4588236 1.4588236 2.552941 1.4588236 3.5254903 1.4588236 4.4980392 1.4588236 5.470588 1.4588236 6.443137 1.4588236
000090 c2 90 ca 90 d2 90 da 90 e3 90 eb 90 f3 90 fb 90
       7.537255 1.4588236 8.509804 1.4588236 9.482353 1.4588236 10.454902 1.4588236 11.54902 1.4588236 12.521568 1.4588236 13.494118 1.4588236 14.466666 1.4588236
0000a0 03 90 0c 90 14 90 1c 90 24 90 2d 90 35 90 3d 90
       15.439216 1.4588236 16.533333 1.4588236 17.505882 1.4588236 18.478432 1.4588236 19.450981 1.4588236 20.545097 1.4588236 21.517647 1.4588236 22.490196 1.4588236
0000b0 45 90 4e 90 56 90 5e 90 66 90 6e 90 77 90 7f 90
       23.462746 1.4588236 24.556862 1.4588236 25.529411 1.4588236 26.50196 1.4588236 27.47451 1.4588236 28.44706 1.4588236 29.541176 1.4588236 30.513725 1.4588236
0000c0 80 99 88 99 90 99 99 99 a1 99 a9 99 b1 99 b9 99
       -0.4862745 2.552941 0.4862745 2.552941 1.4588236 2.552941 2.552941 2.552941 3.5254903 2.552941 4.4980392 2.552941 5.470588 2.552941 6.443137 2.552941
0000d0 c2 99 ca 99 d2 99 da 99 e3 99 eb 99 f3 99 fb 99
       7.537255 2.552941 8.509804 2.552941 9.482353 2.552941 10.454902 2.552941 11.54902 2.552941 12.521568 2.552941 13.494118 2.552941 14.466666 2.552941
0000e0 03 99 0c 99 14 99 1c 99 24 99 2d 99 35 99 3d 99
       15.439216 2.552941 16.533333 2.552941 17.505882 2.552941 18.478432 2.552941 19.450981 2.552941 20.545097 2.552941 21.517647 2.552941 22.490196 2.552941
0000f0 45 99 4e 99 56 99 5e 99 66 99 6e 99 77 99 7f 99
       23.462746 2.552941 24.556862 2.552941 25.529411 2.552941 26.50196 2.552941 27.47451 2.552941 28.44706 2.552941 29.541176 2.552941 30.513725 2.552941

tfl.pseudo_qconst4 i1 [18, 1, 1, 40]
000000 66 ef 81 f2 00 59 c6 65 e2 b6 07 03 b9 c3 b0 0e
       102 -17 -127 -14 0 89 -58 101 -30 -74 7 3 -71 -61 -80 14
000010 5f 13 77 27 33 36 e7 00 48 e5 c5 1d ce d9 e0 0b
       95 19 119 39 51 54 -25 0 72 -27 -59 29 -50 -39 -32 11
000020 ea 01 dc ef 4d d6 42 da 75 04 f9 44 de 2b e6 bc
       -22 1 -36 -17 77 -42 66 -38 117 4 -7 68 -34 43 -26 -68
000030 f4 07 be 48 1f 01 05 f5 ad d2 20 f6 81 1e e8 02
       -12 7 -66 72 31 1 5 -11 -83 -46 32 -10 -127 30 -24 2
000040 e4 29 ca ea 57 bc ef c1 12 16 19 ec f4 09 e8 e6
       -28 41 -54 -22 87 -68 -17 -63 18 22 25 -20 -12 9 -24 -26
000050 48 ae 09 ff 4c dd 7f be c9 64 c8 37 1f eb fe 8a
       72 -82 9 -1 76 -35 127 -66 -55 100 -56 55 31 -21 -2 -118
000060 23 52 aa c9 f7 11 20 db 29 de 3b 27 f5 4d bd c1
       35 82 -86 -55 -9 17 32 -37 41 -34 59 39 -11 77 -67 -63
000070 03 0c 39 42 28 e4 21 1c fd 20 f0 3b 45 1e 16 b8
       3 12 57 66 40 -28 33 28 -3 32 -16 59 69 30 22 -72
000080 ec 0f 15 c0 19 16 c9 d8 22 0c 10 ef 19 dc 02 10
       -20 15 21 -64 25 22 -55 -40 34 12 16 -17 25 -36 2 16
000090 04 d7 44 0b 00 d5 e8 3e b7 ec 03 fd 7f f0 05 0e
       4 -41 68 11 0 -43 -24 62 -73 -20 3 -3 127 -16 5 14
0000a0 2c e6 0b f7 13 e3 d4 e7 fd f0 f8 d5 73 d4 d7 f9
       44 -26 11 -9 19 -29 -44 -25 -3 -16 -8 -43 115 -44 -41 -7
0000b0 11 df 1c 0a 24 07 05 d8 fb 04 00 15 fe 00 7f 07
       17 -33 28 10 36 7 5 -40 -5 4 0 21 -2 0 127 7
0000c0 f7 f4 ef 04 f8 0f 04 06 da 0e ae 74 1d 11 ea 2b
       -9 -12 -17 4 -8 15 4 6 -38 14 -82 116 29 17 -22 43
0000d0 5f 62 fe 62 81 fa c1 ba 4d 16 e1 b7 52 c9 f3 1e
       95 98 -2 98 -127 -6 -63 -70 77 22 -31 -73 82 -55 -13 30
0000e0 2d a2 e8 db b8 f1 60 17 d8 fb db e8 c2 eb e4 e4
       45 -94 -24 -37 -72 -15 96 23 -40 -5 -37 -24 -62 -21 -28 -28
0000f0 70 ea 94 ae 3c e0 d7 4b 3c e7 57 30 b7 c0 e1 39
       112 -22 -108 -82 60 -32 -41 75 60 -25 87 48 -73 -64 -31 57

tfl.pseudo_qconst7 i1 [1, 256, 1, 2] scale=0.05882353 zero_point=-120
000000 80 80 90 80 a1 80 b2 80 c3 80 d4 80 e5 80 f6 80
       -0.47058824 -0.47058824 0.47058824 -0.47058824 1.4705882 -0.47058824 2.4705882 -0.47058824 3.4705882 -0.47058824 4.470588 -0.47058824 5.470588 -0.47058824 6.470588 -0.47058824
000010 07 80 18 80 29 80 3a 80 4b 80 5c 80 6d 80 7e 80
       7.470588 -0.47058824 8.470589 -0.47058824 9.470589 -0.47058824 10.470589 -0.47058824 11.470589 -0.47058824 12.470589 -0.47058824 13.470589 -0.47058824 14.470589 -0.47058824
000020 80 90 90 90 a1 90 b2 90 c3 90 d4 90 e5 90 f6 90
       -0.47058824 0.47058824 0.47058824 0.47058824 1.4705882 0.47058824 2.4705882 0.47058824 3.4705882 0.47058824 4.470588 0.47058824 5.470588 0.47058824 6.470588 0.47058824
000030 07 90 18 90 29 90 3a 90 4b 90 5c 90 6d 90 7e 90
       7.470588 0.47058824 8.470589 0.47058824 9.470589 0.47058824 10.470589 0.47058824 11.470589 0.47058824 12.470589 0.47058824 13.470589 0.47058824 14.470589 0.47058824
000040 80 a1 90 a1 a1 a1 b2 a1 c3 a1 d4 a1 e5 a1 f6 a1
       -0.47058824 1.4705882 0.47058824 1.4705882 1.4705882 1.4705882 2.4705882 1.4705882 3.4705882 1.4705882 4.470588 1.4705882 5.470588 1.4705882 6.470588 1.4705882
000050 07 a1 18 a1 29 a1 3a a1 4b a1 5c a1 6d a1 7e a1
       7.470588 1.4705882 8.470589 1.4705882 9.470589 1.4705882 10.470589 1.4705882 11.470589 1.4705882 12.470589 1.4705882 13.470589 1.4705882 14.470589 1.4705882
000060 80 b2 90 b2 a1 b2 b2 b2 c3 b2 d4 b2 e5 b2 f6 b2
       -0.47058824 2.4705882 0.47058824 2.4705882 1.4705882 2.4705882 2.4705882 2.4705882 3.4705882 2.4705882 4.470588 2.4705882 5.470588 2.4705882 6.470588 2.4705882
000070 07 b2 18 b2 29 b2 3a b2 4b b2 5c b2 6d b2 7e b2
       7.470588 2.4705882 8.470589 2.4705882 9.470589 2.4705882 10.470589 2.4705882 11.470589 2.4705882 12.470589 2.4705882 13.470589 2.4705882 14.470589 2.4705882
000080 80 c3 90 c3 a1 c3 b2 c3 c3 c3 d4 c3 e5 c3 f6 c3
       -0.47058824 3.4705882 0.47058824 3.4705882 1.4705882 3.4705882 2.4705882 3.4705882 3.4705882 3.4705882 4.470588 3.4705882 5.470588 3.4705882 6.470588 3.4705882
000090 07 c3 18 c3 29 c3 3a c3 4b c3 5c c3 6d c3 7e c3
       7.470588 3.4705882 8.470589 3.4705882 9.470589 3.4705882 10.470589 3.4705882 11.470589 3.4705882 12.470589 3.4705882 13.470589 3.4705882 14.470589 3.4705882
0000a0 80 d4 90 d4 a1 d4 b2 d4 c3 d4 d4 d4 e5 d4 f6 d4
       -0.47058824 4.470588 0.47058824 4.470588 1.4705882 4.470588 2.4705882 4.470588 3.4705882 4.470588 4.470588 4.470588 5.470588 4.470588 6.470588 4.470588
0000b0 07 d4 18 d4 29 d4 3a d4 4b d4 5c d4 6d d4 7e d4
       7.470588 4.470588 8.470589 4.470588 9.470589 4.470588 10.470589 4.470588 11.470589 4.470588 12.470589 4.470588 13.470589 4.470588 14.470589 4.470588
0000c0 80 e5 90 e5 a1 e5 b2 e5 c3 e5 d4 e5 e5 e5 f6 e5
       -0.47058824 5.470588 0.47058824 5.470588 1.4705882 5.470588 2.4705882 5.470588 3.4705882 5.470588 4.470588 5.470588 5.470588 5.470588 6.470588 5.470588
0000d0 07 e5 18 e5 29 e5 3a e5 4b e5 5c e5 6d e5 7e e5
       7.470588 5.470588 8.470589 5.470588 9.470589 5.470588 10.470589 5.470588 11.470589 5.470588 12.470589 5.470588 13.470589 5.470588 14.470589 5.470588
0000e0 80 f6 90 f6 a1 f6 b2 f6 c3 f6 d4 f6 e5 f6 f6 f6
       -0.47058824 6.470588 0.47058824 6.470588 1.4705882 6.470588 2.4705882 6.470588 3.4705882 6.470588 4.470588 6.470588 5.470588 6.470588 6.470588 6.470588
0000f0 07 f6 18 f6 29 f6 3a f6 4b f6 5c f6 6d f6 7e f6
       7.470588 6.470588 8.470589 6.470588 9.470589 6.470588 10.470589 6.470588 11.470589 6.470588 12.470589 6.470588 13.470589 6.470588 14.470589 6.470588

tfl.pseudo_qconst9 i1 [18, 1, 1, 80]
000000 f8 15 26 13 11 e4 26 a4 f0 09 07 f0 d3 1e 92 0b
       -8 21 38 19 17 -28 38 -92 -16 9 7 -16 -45 30 -110 11
000010 08 0f 3f 3d 3b dc 2a 33 fe fd 24 c6 02 26 e5 25
       8 15 63 61 59 -36 42 51 -2 -3 36 -58 2 38 -27 37
000020 13 1d bf c7 07 0e 50 12 a9 44 54 f1 c8 fb 1b dc
       19 29 -65 -57 7 14 80 18 -87 68 84 -15 -56 -5 27 -36
000030 e4 1c f7 17 c2 27 c1 2e 36 13 81 51 e3 e1 1c 52
       -28 28 -9 23 -62 39 -63 46 54 19 -127 81 -29 -31 28 82
000040 ea 54 15 b9 47 04 02 d9 14 05 02 f2 dc 19 56 cc
       -22 84 21 -71 71 4 2 -39 20 5 2 -14 -36 25 86 -52
000050 b6 cd 44 df c5 33 42 bb d8 07 49 e8 fd f7 7f 41
       -74 -51 68 -33 -59 51 66 -69 -40 7 73 -24 -3 -9 127 65
000060 c6 32 f9 c4 b0 38 b0 00 ad 2f 23 fb f8 d6 d4 9e
       -58 50 -7 -60 -80 56 -80 0 -83 47 35 -5 -8 -42 -44 -98
000070 cb 07 1a f1 d3 e5 fb 0d 33 fd 12 47 e0 56 e3 e4
       -53 7 26 -15 -45 -27 -5 13 51 -3 18 71 -32 86 -29 -28
000080 03 42 33 3c 23 2d 41 e1 4d d6 a3 ec 43 e0 bd 01
       3 66 51 60 35 45 65 -31 77 -42 -93 -20 67 -32 -67 1
000090 38 4c e4 08 15 e2 03 c5 bb f7 01 58 58 49 45 28
       56 76 -28 8 21 -30 3 -59 -69 -9 1 88 88 73 69 40
0000a0 b5 12 29 38 25 f0 12 be fc 14 ec 4f 30 c6 01 cb
       -75 18 41 56 37 -16 18 -66 -4 20 -20 79 48 -58 1 -53
0000b0 37 bc d3 f0 0e 93 fd 4d 21 f7 25 78 12 e3 1f fc
       55 -68 -45 -16 14 -109 -3 77 33 -9 37 120 18 -29 31 -4
0000c0 a5 c9 cc ce 62 d3 f0 41 d1 94 e7 f3 f1 26 3f 0d
       -91 -55 -52 -50 98 -45 -16 65 -47 -108 -25 -13 -15 38 63 13
0000d0 47 9e 03 0d 8e 28 22 fd fb 51 03 30 d5 e6 81 cd
       71 -98 3 13 -114 40 34 -3 -5 81 3 48 -43 -26 -127 -51
0000e0 b0 d1 db 51 3f dd 8d c0 52 9e 21 53 e7 bc 00 0a
       -80 -47 -37 81 63 -35 -115 -64 82 -98 33 83 -25 -68 0 10
0000f0 59 1e b8 fc e7 2d 3e 0e bb 00 04 ef da b9 f0 d0
       89 30 -72 -4 -25 45 62 14 -69 0 4 -17 -38 -71 -16 -48

tfl.pseudo_qconst13 i1 [1, 64, 1, 2] scale=0.02745098 zero_point=-110
000000 80 80 a4 80 c9 80 ed 80 11 80 36 80 5a 80 7f 80
       -0.49411765 -0.49411765 0.49411765 -0.49411765 1.5098039 -0.49411765 2.4980392 -0.49411765 3.4862745 -0.49411765 4.5019608 -0.49411765 5.490196 -0.49411765 6.5058823 -0.49411765
000010 80 a4 a4 a4 c9 a4 ed a4 11 a4 36 a4 5a a4 7f a4
       -0.49411765 0.49411765 0.49411765 0.49411765 1.5098039 0.49411765 2.4980392 0.49411765 3.4862745 0.49411765 4.5019608 0.49411765 5.490196 0.49411765 6.5058823 0.49411765
000020 80 c9 a4 c9 c9 c9 ed c9 11 c9 36 c9 5a c9 7f c9
       -0.49411765 1.5098039 0.49411765 1.5098039 1.5098039 1.5098039 2.4980392 1.5098039 3.4862745 1.5098039 4.5019608 1.5098039 5.490196 1.5098039 6.5058823 1.5098039
000030 80 ed a4 ed c9 ed ed ed 11 ed 36 ed 5a ed 7f ed
       -0.49411765 2.4980392 0.49411765 2.4980392 1.5098039 2.4980392 2.4980392 2.4980392 3.4862745 2.4980392 4.5019608 2.4980392 5.490196 2.4980392 6.5058823 2.4980392
000040 80 11 a4 11 c9 11 ed 11 11 11 36 11 5a 11 7f 11
       -0.49411765 3.4862745 0.49411765 3.4862745 1.5098039 3.4862745 2.4980392 3.4862745 3.4862745 3.4862745 4.5019608 3.4862745 5.490196 3.4862745 6.5058823 3.4862745
000050 80 36 a4 36 c9 36 ed 36 11 36 36 36 5a 36 7f 36
       -0.49411765 4.5019608 0.49411765 4.5019608 1.5098039 4.5019608 2.4980392 4.5019608 3.4862745 4.5019608 4.5019608 4.5019608 5.490196 4.5019608 6.5058823 4.5019608
000060 80 5a a4 5a c9 5a ed 5a 11 5a 36 5a 5a 5a 7f 5a
       -0.49411765 5.490196 0.49411765 5.490196 1.5098039 5.490196 2.4980392 5.490196 3.4862745 5.490196 4.5019608 5.490196 5.490196 5.490196 6.5058823 5.490196
000070 80 7f a4 7f c9 7f ed 7f 11 7f 36 7f 5a 7f 7f 7f
       -0.49411765 6.5058823 0.49411765 6.5058823 1.5098039 6.5058823 2.4980392 6.5058823 3.4862745 6.5058823 4.5019608 6.5058823 5.490196 6.5058823 6.5058823 6.5058823

tfl.pseudo_qconst16 i1 [18, 1, 1, 160]
000000 3d f2 04 05 c4 d7 14 d8 1d 12 18 18 0c 5c 08 18
       61 -14 4 5 -60 -41 20 -40 29 18 24 24 12 92 8 24
000010 43 fc f8 e5 ff df ed c7 17 1e 37 29 06 47 d3 f8
       67 -4 -8 -27 -1 -33 -19 -57 23 30 55 41 6 71 -45 -8
000020 00 1a fc 00 06 3e 22 e2 f6 f1 ee c2 c8 10 d8 ff
       0 26 -4 0 6 62 34 -30 -10 -15 -18 -62 -56 16 -40 -1
000030 36 ef db 1f d6 df dd 28 ec 22 c4 81 de e4 ba 4c
       54 -17 -37 31 -42 -33 -35 40 -20 34 -60 -127 -34 -28 -70 76
000040 ef d6 03 01 26 14 29 f8 d9 00 10 fd 51 0c 03 f1
       -17 -42 3 1 38 20 41 -8 -39 0 16 -3 81 12 3 -15
000050 cc 4a 19 1b e7 07 1d c4 e1 ed 0e 21 db 14 fa ed
       -52 74 25 27 -25 7 29 -60 -31 -19 14 33 -37 20 -6 -19
000060 19 d6 e9 33 e6 2a 3a 29 f6 2a 04 0c eb db 10 eb
       25 -42 -23 51 -26 42 58 41 -10 42 4 12 -21 -37 16 -21
000070 ee 25 cd 30 f0 ea ef d5 ff 0f 19 fe 17 3b f9 dd
       -18 37 -51 48 -16 -22 -17 -43 -1 15 25 -2 23 59 -7 -35
000080 fd 11 f8 2d fb d5 fb 03 ef e7 e1 0a 05 2d 34 4e
       -3 17 -8 45 -5 -43 -5 3 -17 -25 -31 10 5 45 52 78
000090 b8 dc 06 f7 43 d9 21 d4 40 ef d0 1d 07 32 ed 07
       -72 -36 6 -9 67 -39 33 -44 64 -17 -48 29 7 50 -19 7
0000a0 e0 28 b1 c1 0f 81 be fe 66 15 10 28 2c ff 00 f3
       -32 40 -79 -63 15 -127 -66 -2 102 21 16 40 44 -1 0 -13
0000b0 05 3a d3 0e 50 e0 da 1c 13 d5 1a 3a 0c 33 38 18
       5 58 -45 14 80 -32 -38 28 19 -43 26 58 12 51 56 24
0000c0 e9 2f 3b 14 d9 de 20 d5 ef 50 1d ea 05 0d 1c 37
       -23 47 59 20 -39 -34 32 -43 -17 80 29 -22 5 13 28 55
0000d0 bd 1a c7 f3 f4 cd 24 e3 54 fa 62 f0 f8 02 e6 41
       -67 26 -57 -13 -12 -51 36 -29 84 -6 98 -16 -8 2 -26 65
0000e0 ad f4 e5 02 07 be 3c 2e 13 31 28 e6 05 d5 3d f4
       -83 -12 -27 2 7 -66 60 46 19 49 40 -26 5 -43 61 -12
0000f0 13 ea 18 28 f7 fc 05 05 e7 b0 19 4f bf 52 df eb
       19 -22 24 40 -9 -4 5 5 -25 -80 25 79 -65 82 -33 -21

tfl.pseudo_qconst18 i1 [160, 1, 1, 160]
000000 39 fb 98 8f 0c cb 04 2e 36 53 99 f3 50 eb ef 03
       57 -5 -104 -113 12 -53 4 46 54 83 -103 -13 80 -21 -17 3
000010 f4 b3 c6 2e 55 59 bb a3 48 c9 4d 3c 04 35 0b bb
       -12 -77 -58 46 85 89 -69 -93 72 -55 77 60 4 53 11 -69
000020 09 2a 12 b3 b4 f2 46 12 11 27 ed 04 a9 bf 31 fb
       9 42 18 -77 -76 -14 70 18 17 39 -19 4 -87 -65 49 -5
000030 4f 3f 10 cc 81 d1 8f 98 52 e5 db c7 e2 f7 e3 f4
       79 63 16 -52 -127 -47 -113 -104 82 -27 -37 -57 -30 -9 -29 -12
000040 ab 9e bb 55 1c e8 a9 44 36 ec 4d c4 b6 1c e6 55
       -85 -98 -69 85 28 -24 -87 68 54 -20 77 -60 -74 28 -26 85
000050 de 07 9f fd b0 b3 cd 47 f7 e1 c1 24 26 c0 98 a4
       -34 7 -97 -3 -80 -77 -51 71 -9 -31 -63 36 38 -64 -104 -92
000060 d3 c9 f9 b2 e1 d5 c9 b7 3b 0e cf 5b 0f 1f 54 2e
       -45 -55 -7 -78 -31 -43 -55 -73 59 14 -49 91 15 31 84 46
000070 f7 44 b2 a9 e9 b5 ef 07 69 33 14 d3 39 b3 2f b1
       -9 68 -78 -87 -23 -75 -17 7 105 51 20 -45 57 -77 47 -79
000080 5b c1 45 42 ea c5 39 c5 35 a9 ee 24 db ec e3 f7
       91 -63 69 66 -22 -59 57 -59 53 -87 -18 36 -37 -20 -29 -9
000090 fc ea a4 e9 36 5c a3 b9 e0 3e 55 61 43 e5 44 37
       -4 -22 -92 -23 54 92 -93 -71 -32 62 85 97 67 -27 68 55
0000a0 bf 9e e0 52 29 f7 c0 25 8b 8f cf c8 4c ad f7 18
       -65 -98 -32 82 41 -9 -64 37 -117 -113 -49 -56 76 -83 -9 24
0000b0 d7 96 43 48 bc 88 b6 f5 3b c4 96 22 36 c3 57 a3
       -41 -106 67 72 -68 -120 -74 -11 59 -60 -106 34 54 -61 87 -93
0000c0 d2 e3 ff 70 f6 00 23 95 ef 0f dd 1f 46 16 07 2a
       -46 -29 -1 112 -10 0 35 -107 -17 15 -35 31 70 22 7 42
0000d0 08 c7 a7 51 1e 58 2f 42 c8 9d 82 9c c0 dd 23 fa
       8 -57 -89 81 30 88 47 66 -56 -99 -126 -100 -64 -35 35 -6
0000e0 d0 d7 c2 c8 d8 c7 50 ca 5b ca ba 52 a4 11 26 8b
       -48 -41 -62 -56 -40 -57 80 -54 91 -54 -70 82 -92 17 38 -117
0000f0 c3 be c6 de 1d 27 26 db bb 44 fa a9 33 9c 8a 70
       -61 -66 -58 -34 29 39 38 -37 -69 68 -6 -87 51 -100 -118 112

tfl.pseudo_qconst20 i1 [80, 1, 1, 160]
000000 e0 62 e1 42 bb dc 98 c9 b3 23 23 ee 10 1a b4 35
       -32 98 -31 66 -69 -36 -104 -55 -77 35 35 -18 16 26 -76 53
000010 12 00 cb 55 4d 9a c7 24 d8 15 a5 81 26 24 0b a9
       18 0 -53 85 77 -102 -57 36 -40 21 -91 -127 38 36 11 -87
000020 b3 ed b4 23 b9 be f0 9a f9 a0 20 9a b6 44 b9 ae
       -77 -19 -76 35 -71 -66 -16 -102 -7 -96 32 -102 -74 68 -71 -82
000030 f2 ba 96 c3 2a 63 17 6a d6 ea e6 12 dc a3 3e 27
       -14 -70 -106 -61 42 99 23 106 -42 -22 -26 18 -36 -93 62 39
000040 14 28 cb 45 45 28 9f 2d f0 5a 73 2b 38 f8 e4 bb
       20 40 -53 69 69 40 -97 45 -16 90 115 43 56 -8 -28 -69
000050 4b 11 1d 97 66 35 9f dc ee 42 a5 b6 a6 be 5b f6
       75 17 29 -105 102 53 -97 -36 -18 66 -91 -74 -90 -66 91 -10
000060 42 44 2e e2 d7 d1 04 b0 36 c1 cb 57 eb 40 e6 a8
       66 68 46 -30 -41 -47 4 -80 54 -63 -53 87 -21 64 -26 -88
000070 0f 2a e5 ab ce 95 b3 1f ba 5c d4 37 cc a9 9a ff
       15 42 -27 -85 -50 -107 -77 31 -70 92 -44 55 -52 -87 -102 -1
000080 44 bf d6 9f 1e 13 05 3b a7 e4 40 00 53 26 c1 57
       68 -65 -42 -97 30 19 5 59 -89 -28 64 0 83 38 -63 87
000090 3d 56 09 af 32 42 2e c3 f0 56 db 43 9f 53 9b 0e
       61 86 9 -81 50 66 46 -61 -16 86 -37 67 -97 83 -101 14
0000a0 b5 ea 2a 43 a7 2f 1b e5 f4 ab 50 21 18 f0 fb 00
       -75 -22 42 67 -89 47 27 -27 -12 -85 80 33 24 -16 -5 0
0000b0 f3 1a c8 eb 23 28 14 10 24 cb c1 63 6a 51 c7 aa
       -13 26 -56 -21 35 40 20 16 36 -53 -63 99 106 81 -57 -86
0000c0 cc 16 c1 25 62 00 d1 13 d4 4f 45 26 03 15 1a 43
       -52 22 -63 37 98 0 -47 19 -44 79 69 38 3 21 26 67
0000d0 13 f2 5e 43 96 23 a5 c3 ba ef 71 18 d1 09 3d ae
       19 -14 94 67 -106 35 -91 -61 -70 -17 113 24 -47 9 61 -82
0000e0 12 2b 2b c1 c1 ef 0f d1 27 1a 1d 43 17 49 be 81
       18 43 43 -63 -63 -17 15 -47 39 26 29 67 23 73 -66 -127
0000f0 19 ca e1 ed 1a e5 c6 c2 e4 c8 d3 00 cb d7 1d 3e
       25 -54 -31 -19 26 -27 -58 -62 -28 -56 -45 0 -53 -41 29 62

tfl.pseudo_qconst22 i1 [80, 3, 3, 80]
000000 c9 d6 26 ad 51 f2 15 eb ef 28 1a dc ef 9a 09 32
       -55 -42 38 -83 81 -14 21 -21 -17 40 26 -36 -17 -102 9 50
000010 01 bf 14 05 f6 43 b3 ea cf 30 af d3 42 18 f9 24
       1 -65 20 5 -10 67 -77 -22 -49 48 -81 -45 66 24 -7 36
000020 56 17 2b 37 aa e0 dc cc 53 d1 c6 33 03 b2 a8 c1
       86 23 43 55 -86 -32 -36 -52 83 -47 -58 51 3 -78 -88 -63
000030 05 d3 e5 ab ef 22 c3 b1 f7 cb dc 2b 5f 2d 01 e5
       5 -45 -27 -85 -17 34 -61 -79 -9 -53 -36 43 95 45 1 -27
000040 a6 ed c8 d4 b2 b5 58 00 49 38 f4 27 07 4f 2f fd
       -90 -19 -56 -44 -78 -75 88 0 73 56 -12 39 7 79 47 -3
000050 a6 c7 d1 2e 2d 4a bb 42 00 33 c6 fe 18 a0 38 36
       -90 -57 -47 46 45 74 -69 66 0 51 -58 -2 24 -96 56 54
000060 1e b8 ca fe 0c 13 2f bc 21 15 25 0b 1b 22 ec c6
       30 -72 -54 -2 12 19 47 -68 33 21 37 11 27 34 -20 -58
000070 e3 2f e5 4e db 1d 14 4a 30 c8 e8 e4 d2 38 26 fb
       -29 47 -27 78 -37 29 20 74 48 -56 -24 -28 -46 56 38 -5
000080 3b e6 1c dc 40 c5 28 bb 34 17 b6 4a 18 c4 c6 1c
       59 -26 28 -36 64 -59 40 -69 52 23 -74 74 24 -60 -58 28
000090 ed 3c fd c0 bb 0b e9 ce ce ad f2 25 c3 0a 1c 15
       -19 60 -3 -64 -69 11 -23 -50 -50 -83 -14 37 -61 10 28 21
0000a0 e6 0a 0e d6 0c d8 3b 48 b5 b0 57 fd da d9 08 e8
       -26 10 14 -42 12 -40 59 72 -75 -80 87 -3 -38 -39 8 -24
0000b0 0f 34 34 30 52 d2 ca 4e 21 1f dd aa 11 18 31 ba
       15 52 52 48 82 -46 -54 78 33 31 -35 -86 17 24 49 -70
0000c0 ff 40 32 60 47 02 e9 01 07 3c 43 b8 c9 3a 49 c9
       -1 64 50 96 71 2 -23 1 7 60 67 -72 -55 58 73 -55
0000d0 3b 99 33 01 3a be e7 f9 84 ea 36 2c e8 ea 26 bc
       59 -103 51 1 58 -66 -25 -7 -124 -22 54 44 -24 -22 38 -68
0000e0 a1 1b e0 35 3b bd 0b a8 f8 2d 32 d5 d9 b9 ee 29
       -95 27 -32 53 59 -67 11 -88 -8 45 50 -43 -39 -71 -18 41
0000f0 3b f9 eb 5a 54 26 56 ce 3f c3 d4 ac ff dc 67 d9
       59 -7 -21 90 84 38 86 -50 63 -61 -44 -84 -1 -36 103 -39

tfl.pseudo_qconst24 i1 [80, 1, 1, 80]
000000 fe 46 ca d5 bc 5e 26 af d0 4a 41 28 50 52 4e 0f
       -2 70 -54 -43 -68 94 38 -81 -48 74 65 40 80 82 78 15
000010 b8 47 93 c4 fa c7 50 7f b5 a5 2f ce b9 ea e3 37
       -72 71 -109 -60 -6 -57 80 127 -75 -91 47 -50 -71 -22 -29 55
000020 d2 fe eb d6 22 bd f6 1c 16 be 11 a5 dc 3b 4a c8
       -46 -2 -21 -42 34 -67 -10 28 22 -66 17 -91 -36 59 74 -56
000030 fa c9 47 9d 04 37 be 0c 01 5b bc 9d 62 f8 02 73
       -6 -55 71 -99 4 55 -66 12 1 91 -68 -99 98 -8 2 115
000040 ff a9 dc 65 b5 ff f4 1b e4 5e b5 2b df 6c 2c db
       -1 -87 -36 101 -75 -1 -12 27 -28 94 -75 43 -33 108 44 -37
000050 f1 f3 df b7 71 04 fd da e3 67 7c b4 42 64 83 62
       -15 -13 -33 -73 113 4 -3 -38 -29 103 124 -76 66 100 -125 98
000060 67 ee 0e 23 af 1f f5 81 e0 87 33 ab 8f 90 7c 89
       103 -18 14 35 -81 31 -11 -127 -32 -121 51 -85 -113 -112 124 -119
000070 68 6c 0d 3b c0 fa c1 a8 f2 af ac a3 05 e7 cf 2a
       104 108 13 59 -64 -6 -63 -88 -14 -81 -84 -93 5 -25 -49 42
000080 99 ba f0 4d 2d e4 85 e9 b2 e2 a1 fc f6 c2 0e 05
       -103 -70 -16 77 45 -28 -123 -23 -78 -30 -95 -4 -10 -62 14 5
000090 3f 7e b9 92 b3 9f 13 ca de b8 64 06 ef e2 8b 93
       63 126 -71 -110 -77 -97 19 -54 -34 -72 100 6 -17 -30 -117 -109
0000a0 d4 02 2d fd 39 f7 d7 38 34 c6 da 23 b0 7d 03 a0
       -44 2 45 -3 57 -9 -41 56 52 -58 -38 35 -80 125 3 -96
0000b0 fc 16 bb 8c ee ad ee ad 91 57 33 04 45 92 c1 9b
       -4 22 -69 -116 -18 -83 -18 -83 -111 87 51 4 69 -110 -63 -101
0000c0 9b 1b b1 32 d6 ba 66 7f 7d d2 5b 60 05 8c a2 89
       -101 27 -79 50 -42 -70 102 127 125 -46 91 96 5 -116 -94 -119
0000d0 e8 0c dc b1 79 da 42 1a c1 90 5e 32 bc 42 4c 0a
       -24 12 -36 -79 121 -38 66 26 -63 -112 94 50 -68 66 76 10
0000e0 3c 6d 95 4c 67 e2 43 00 bc 54 91 3d bc ec 42 dd
       60 109 -107 76 103 -30 67 0 -68 84 -111 61 -68 -20 66 -35
0000f0 5b 02 51 27 98 c3 04 f5 1f b5 ef ab b4 3a 41 9e
       91 2 81 39 -104 -61 4 -11 31 -75 -17 -85 -76 58 65 -98

tfl.pseudo_qconst26 i1 [80, 1, 1, 160]
000000 c2 32 e7 9f 23 3d 48 91 0c 21 d9 90 20 4e 70 d5
       -62 50 -25 -97 35 61 72 -111 12 33 -39 -112 32 78 112 -43
000010 ed 92 90 e5 d5 55 aa b0 84 25 1f 55 d1 35 4a 53
       -19 -110 -112 -27 -43 85 -86 -80 -124 37 31 85 -47 53 74 83
000020 b0 af 9d 9b fd c3 fe 8a 93 9b 5d 45 e1 68 5a 41
       -80 -81 -99 -101 -3 -61 -2 -118 -109 -101 93 69 -31 104 90 65
000030 e2 ac af b4 29 2a fa 24 02 5b 64 38 f5 26 58 34
       -30 -84 -81 -76 41 42 -6 36 2 91 100 56 -11 38 88 52
000040 5e 75 bd 39 c4 60 2b 91 3a ef a5 ab 5f fc b4 05
       94 117 -67 57 -60 96 43 -111 58 -17 -91 -85 95 -4 -76 5
000050 e0 e7 b5 a9 df df d1 4d 4e 8e 61 90 5a 24 07 5d
       -32 -25 -75 -87 -33 -33 -47 77 78 -114 97 -112 90 36 7 93
000060 b0 a6 1c 9f 3a 10 8b eb aa 4e 6a c3 4c ed 71 3b
       -80 -90 28 -97 58 16 -117 -21 -86 78 106 -61 76 -19 113 59
000070 c9 87 19 b5 dc 2e ea 5c 6e 88 c9 62 b7 2a dd 64
       -55 -121 25 -75 -36 46 -22 92 110 -120 -55 98 -73 42 -35 100
000080 d4 05 9b b2 f8 8a c3 91 a2 dc 28 a1 5f fb 53 c7
       -44 5 -101 -78 -8 -118 -61 -111 -94 -36 40 -95 95 -5 83 -57
000090 dd d3 26 e9 4d 50 ac da b5 81 da ce 17 42 de 57
       -35 -45 38 -23 77 80 -84 -38 -75 -127 -38 -50 23 66 -34 87
0000a0 cb cc 05 7f df cf 37 bd db d1 41 be ef e1 de 12
       -53 -52 5 127 -33 -49 55 -67 -37 -47 65 -66 -17 -31 -34 18
0000b0 b6 0a 49 e8 0f 40 00 fd 51 bd ce 2e 10 db 7a b5
       -74 10 73 -24 15 64 0 -3 81 -67 -50 46 16 -37 122 -75
0000c0 d7 d6 3e d2 b9 ea 0d 48 1e cc 07 1a 30 3f 0c 3b
       -41 -42 62 -46 -71 -22 13 72 30 -52 7 26 48 63 12 59
0000d0 ec e7 c3 b5 47 0b fc 13 f8 47 d0 3d 1a d9 ab e9
       -20 -25 -61 -75 71 11 -4 19 -8 71 -48 61 26 -39 -85 -23
0000e0 15 c4 0f 31 db f0 d3 06 af 23 00 a2 10 c9 dc 06
       21 -60 15 49 -37 -16 -45 6 -81 35 0 -94 16 -55 -36 6
0000f0 e7 16 4f ac c2 f4 e3 49 e2 c7 33 5a 24 31 e7 b2
       -25 22 79 -84 -62 -12 -29 73 -30 -57 51 90 36 49 -25 -78

tfl.pseudo_qconst28 i1 [80, 3, 3, 80]
000000 dd 30 23 f8 03 c1 d2 4a 4d 4f 42 36 b3 0b 4d c5
       -35 48 35 -8 3 -63 -46 74 77 79 66 54 -77 11 77 -59
000010 3e 3d 58 b1 b1 13 45 27 56 bd b3 bf ce 98 06 48
       62 61 88 -79 -79 19 69 39 86 -67 -77 -65 -50 -104 6 72
000020 d8 2b 6e ad 10 48 55 e7 4e d4 c9 ac e7 41 68 52
       -40 43 110 -83 16 72 85 -25 78 -44 -55 -84 -25 65 104 82
000030 f9 13 2d eb d5 b5 35 cf f4 30 42 56 00 e7 d6 d0
       -7 19 45 -21 -43 -75 53 -49 -12 48 66 86 0 -25 -42 -48
000040 bb be a7 26 31 67 d5 00 55 03 d7 01 25 fe f2 40
       -69 -66 -89 38 49 103 -43 0 85 3 -41 1 37 -2 -14 64
000050 9d 40 59 cb 0f 5a a8 18 bd 02 fb 2d 24 c2 03 c1
       -99 64 89 -53 15 90 -88 24 -67 2 -5 45 36 -62 3 -63
000060 f9 2f c7 c9 c0 a4 ec 12 54 f4 cc 32 40 4f e0 b9
       -7 47 -57 -55 -64 -92 -20 18 84 -12 -52 50 64 79 -32 -71
000070 25 2b db ee f3 a9 bb 28 3e 53 15 e8 bb cd b2 d5
       37 43 -37 -18 -13 -87 -69 40 62 83 21 -24 -69 -51 -78 -43
000080 18 3e d5 2f 49 ca 00 19 e1 5b e9 a8 62 43 bf 14
       24 62 -43 47 73 -54 0 25 -31 91 -23 -88 98 67 -65 20
000090 2a da b1 5d cc 48 b8 47 ef e2 04 d1 ea 3c ec be
       42 -38 -79 93 -52 72 -72 71 -17 -30 4 -47 -22 60 -20 -66
0000a0 a6 f2 49 ce de ee 17 58 a7 e9 1c d6 39 cd 19 d0
       -90 -14 73 -50 -34 -18 23 88 -89 -23 28 -42 57 -51 25 -48
0000b0 4d cf 05 5d 2e 40 05 3a f5 4d 2e dd c5 eb be 46
       77 -49 5 93 46 64 5 58 -11 77 46 -35 -59 -21 -66 70
0000c0 a5 da e9 18 ad dc bc 10 bd b1 c0 e3 cd da d5 21
       -91 -38 -23 24 -83 -36 -68 16 -67 -79 -64 -29 -51 -38 -43 33
0000d0 05 2a 9a b9 e5 cf f8 cc fa df b2 bc 21 da 49 e1
       5 42 -102 -71 -27 -49 -8 -52 -6 -33 -78 -68 33 -38 73 -31
0000e0 3c 13 d0 c5 06 5b c5 d1 41 62 38 50 16 14 1c 24
       60 19 -48 -59 6 91 -59 -47 65 98 56 80 22 20 28 36
0000f0 0a fa 15 fd 20 17 1f d0 08 4f 16 3c c3 d6 21 04
       10 -6 21 -3 32 23 31 -48 8 79 22 60 -61 -42 33 4

tfl.pseudo_qconst30 i1 [80, 1, 1, 80]
000000 ee ce 6b c2 5a 10 fa 0a 0e 7f f4 e3 2b eb f0 21
       -18 -50 107 -62 90 16 -6 10 14 127 -12 -29 43 -21 -16 33
000010 66 38 ff de 14 b2 cb ca e9 a1 cb e6 dc eb f0 bb
       102 56 -1 -34 20 -78 -53 -54 -23 -95 -53 -26 -36 -21 -16 -69
000020 ff be c1 33 c4 c6 b1 9c 3b 38 d5 00 ea ed cc e1
       -1 -66 -63 51 -60 -58 -79 -100 59 56 -43 0 -22 -19 -52 -31
000030 18 47 b2 f4 eb 55 00 ce 15 02 de f0 3d 48 2f cc
       24 71 -78 -12 -21 85 0 -50 21 2 -34 -16 61 72 47 -52
000040 32 b0 d7 a4 eb 4a 91 b9 8d 31 55 bb 09 39 45 b1
       50 -80 -41 -92 -21 74 -111 -71 -115 49 85 -69 9 57 69 -79
000050 78 35 d5 eb 01 53 a3 e0 56 bf 55 09 d6 36 00 d3
       120 53 -43 -21 1 83 -93 -32 86 -65 85 9 -42 54 0 -45
000060 57 5e ca d8 ea ba b0 18 81 32 18 b0 52 1c 25 55
       87 94 -54 -40 -22 -70 -80 24 -127 50 24 -80 82 28 37 85
000070 e0 56 e2 42 e5 8e 5d 3e 74 f4 29 b0 e1 b2 9c 51
       -32 86 -30 66 -27 -114 93 62 116 -12 41 -80 -31 -78 -100 81
000080 2a 09 f2 0c a7 11 b7 c3 ce fd 60 5b 5c 2a 0d ef
       42 9 -14 12 -89 17 -73 -61 -50 -3 96 91 92 42 13 -17
000090 06 65 8c 27 e2 d6 2b ff 41 39 60 18 31 4a a0 f7
       6 101 -116 39 -30 -42 43 -1 65 57 96 24 49 74 -96 -9
0000a0 8a 36 f7 cb 9a 32 a9 b8 51 d8 bd a4 37 9e 81 25
       -118 54 -9 -53 -102 50 -87 -72 81 -40 -67 -92 55 -98 -127 37
0000b0 be 1b 4d 9e a2 65 c3 e5 ff 54 fe 5d 1e e7 2f 5c
       -66 27 77 -98 -94 101 -61 -27 -1 84 -2 93 30 -25 47 92
0000c0 d6 40 d7 70 4d 36 f5 38 f3 2d 15 b7 83 ea 91 11
       -42 64 -41 112 77 54 -11 56 -13 45 21 -73 -125 -22 -111 17
0000d0 46 1b b2 27 02 12 96 ed 1c 54 cc c8 02 21 df c6
       70 27 -78 39 2 18 -106 -19 28 84 -52 -56 2 33 -33 -58
0000e0 d1 04 47 37 4f 8d 15 e5 1b 2e 0e 5a d3 1d 24 24
       -47 4 71 55 79 -115 21 -27 27 46 14 90 -45 29 36 36
0000f0 f5 18 1f 13 2d a7 e3 4d 9d d9 67 44 76 4c bc 5b
       -11 24 31 19 45 -89 -29 77 -99 -39 103 68 118 76 -68 91

tfl.pseudo_qconst32 i1 [40, 1, 1, 80]
000000 13 53 c6 d9 29 ef 81 10 3d 57 e8 54 ce dd c9 d1
       19 83 -58 -39 41 -17 -127 16 61 87 -24 84 -50 -35 -55 -47
000010 ed af 39 bd 13 14 29 3d 25 c9 16 c5 21 bb 05 a7
       -19 -81 57 -67 19 20 41 61 37 -55 22 -59 33 -69 5 -89
000020 33 bb 4a f9 4b a8 57 d1 e8 aa bc b8 1b c2 be f0
       51 -69 74 -7 75 -88 87 -47 -24 -86 -68 -72 27 -62 -66 -16
000030 bd 0e 4f 53 eb 16 da b0 d0 d4 b2 55 b2 1e 52 d5
       -67 14 79 83 -21 22 -38 -80 -48 -44 -78 85 -78 30 82 -43
000040 c8 e5 da cd 21 fa de c9 ab 21 ef f9 2e 24 3d c7
       -56 -27 -38 -51 33 -6 -34 -55 -85 33 -17 -7 46 36 61 -57
000050 ac fd 15 64 f8 ab c3 72 40 34 8c ff b7 9a 6b d8
       -84 -3 21 100 -8 -85 -61 114 64 52 -116 -1 -73 -102 107 -40
000060 00 d3 e2 58 1b 46 56 52 fc 6c 6f 14 a9 a2 bb ef
       0 -45 -30 88 27 70 86 82 -4 108 111 20 -87 -94 -69 -17
000070 f4 6e 0d 03 6e e3 2b 4c 0e db c3 81 c8 f4 46 df
       -12 110 13 3 110 -29 43 76 14 -37 -61 -127 -56 -12 70 -33
000080 d7 4c 94 e2 55 0a fc 3c e9 b2 fc ba cc e5 8e b1
       -41 76 -108 -30 85 10 -4 60 -23 -78 -4 -70 -52 -27 -114 -79
000090 fe 86 f5 aa 57 31 2d d1 d4 00 64 dd 44 a8 c1 07
       -2 -122 -11 -86 87 49 45 -47 -44 0 100 -35 68 -88 -63 7
0000a0 3d c8 6c cb b7 6d ba b6 c4 0a ac c6 b9 a6 c5 98
       61 -56 108 -53 -73 109 -70 -74 -60 10 -84 -58 -71 -90 -59 -104
0000b0 3c 1d e8 6f 6a e7 27 11 e2 78 74 38 64 8b 71 2c
       60 29 -24 111 106 -25 39 17 -30 120 116 56 100 -117 113 44
0000c0 0a 77 96 3f ba 52 2d 23 f3 17 ff 1c 2e ef bc 4a
       10 119 -106 63 -70 82 45 35 -13 23 -1 28 46 -17 -68 74
0000d0 f3 7d 68 40 22 c4 ef 49 16 45 63 79 7f 37 d3 6c
       -13 125 104 64 34 -60 -17 73 22 69 99 121 127 55 -45 108
0000e0 57 c8 ca a4 55 38 c5 85 28 78 35 39 c5 92 1f 3c
       87 -56 -54 -92 85 56 -59 -123 40 120 53 57 -59 -110 31 60
0000f0 c9 fa c9 1c 2d 38 17 4f 5b 2a 41 eb 2c 24 b7 66
       -55 -6 -55 28 45 56 23 79 91 42 65 -21 44 36 -73 102

tfl.pseudo_qconst34 i1 [40, 3, 3, 40]
000000 25 05 c7 23 c4 f1 46 35 ea ec d5 30 29 f0 2b 31
       37 5 -57 35 -60 -15 70 53 -22 -20 -43 48 41 -16 43 49
000010 59 f6 e6 ed ef 19 4c e8 18 38 ed 00 30 17 d8 2b
       89 -10 -26 -19 -17 25 76 -24 24 56 -19 0 48 23 -40 43
000020 f7 19 fc e5 fa 32 c4 d4 0c 7f 51 26 c3 06 4f cf
       -9 25 -4 -27 -6 50 -60 -44 12 127 81 38 -61 6 79 -49
000030 f8 ef 1c 17 16 c6 14 1f 03 02 2e e3 3c ef 41 d6
       -8 -17 28 23 22 -58 20 31 3 2 46 -29 60 -17 65 -42
000040 f4 7d c1 f3 4f e8 db 43 31 e4 ca 26 e2 1d 14 d0
       -12 125 -63 -13 79 -24 -37 67 49 -28 -54 38 -30 29 20 -48
000050 30 41 d8 29 bf 35 55 ec c8 da 32 10 e1 2d 0b 2e
       48 65 -40 41 -65 53 85 -20 -56 -38 50 16 -31 45 11 46
000060 a7 01 28 ca ee 25 ff e0 f9 04 36 1f d2 57 e0 0b
       -89 1 40 -54 -18 37 -1 -32 -7 4 54 31 -46 87 -32 11
000070 ea 2f d0 33 05 df 25 4a f8 b5 d0 c7 fd e0 de 33
       -22 47 -48 51 5 -33 37 74 -8 -75 -48 -57 -3 -32 -34 51
000080 ea c2 2a f3 d5 d5 38 2f 1d ea d2 0b f6 da 0a 1c
       -22 -62 42 -13 -43 -43 56 47 29 -22 -46 11 -10 -38 10 28
000090 b9 f6 f8 2b 0f bd e9 34 00 1e 18 31 ce fd 0b e2
       -71 -10 -8 43 15 -67 -23 52 0 30 24 49 -50 -3 11 -30
0000a0 e6 a7 1e 0f 0e 1f f7 24 b8 32 11 cd 1d b2 fc 2f
       -26 -89 30 15 14 31 -9 36 -72 50 17 -51 29 -78 -4 47
0000b0 cb 1a 27 bb f8 42 30 48 f7 0a e9 01 40 26 06 14
       -53 26 39 -69 -8 66 48 72 -9 10 -23 1 64 38 6 20
0000c0 be d0 f4 35 19 3b 0f ba 16 1a 0a 19 f3 2b 0e fc
       -66 -48 -12 53 25 59 15 -70 22 26 10 25 -13 43 14 -4
0000d0 13 ec c2 14 10 dc 32 35 af eb d1 ed ef 30 bc 1a
       19 -20 -62 20 16 -36 50 53 -81 -21 -47 -19 -17 48 -68 26
0000e0 15 f8 db c5 e8 2e ff e5 42 ed e7 35 10 a3 37 b2
       21 -8 -37 -59 -24 46 -1 -27 66 -19 -25 53 16 -93 55 -78
0000f0 b1 ec cf 17 dd db 3b 0f f9 df 22 b8 2e da e0 32
       -79 -20 -49 23 -35 -37 59 15 -7 -33 34 -72 46 -38 -32 50

tfl.pseudo_qconst36 i1 [40, 1, 1, 40]
000000 6c c0 15 4a db f1 6d f9 26 39 64 d4 23 e9 fd 52
       108 -64 21 74 -37 -15 109 -7 38 57 100 -44 35 -23 -3 82
000010 e8 99 c7 27 e9 c3 01 46 01 09 07 b2 e6 d1 3c 7f
       -24 -103 -57 39 -23 -61 1 70 1 9 7 -78 -26 -47 60 127
000020 30 29 42 47 cc d6 2d cf 10 f5 01 7f c4 16 f5 14
       48 41 66 71 -52 -42 45 -49 16 -11 1 127 -60 22 -11 20
000030 ff af ef 46 52 0c 4b 39 0a 2f 41 1b 55 e8 2d 4f
       -1 -81 -17 70 82 12 75 57 10 47 65 27 85 -24 45 79
000040 d2 4b de d3 d6 31 bb da 09 cc fb d9 50 3c 33 0b
       -46 75 -34 -45 -42 49 -69 -38 9 -52 -5 -39 80 60 51 11
000050 dc 51 62 19 5b 4e 2c d6 90 22 25 46 09 11 41 42
       -36 81 98 25 91 78 44 -42 -112 34 37 70 9 17 65 66
000060 56 17 98 24 ac 66 3c 4c 9b 32 0c 97 96 81 ed 16
       86 23 -104 36 -84 102 60 76 -101 50 12 -105 -106 -127 -19 22
000070 c6 69 4b 5e 1a e5 a8 5a 13 7d 6f f0 57 db 35 15
       -58 105 75 94 26 -27 -88 90 19 125 111 -16 87 -37 53 21
000080 86 ea d1 b4 d5 e0 6b 4e 1c eb 8e 08 2b fd 75 e6
       -122 -22 -47 -76 -43 -32 107 78 28 -21 -114 8 43 -3 117 -26
000090 76 7f 75 ef e9 a2 ad 02 fc d9 da 5e 7e 9e e0 e3
       118 127 117 -17 -23 -94 -83 2 -4 -39 -38 94 126 -98 -32 -29
0000a0 59 90 1d 11 2d 23 9f f1 0e c4 41 08 30 3a 01 c3
       89 -112 29 17 45 35 -97 -15 14 -60 65 8 48 58 1 -61
0000b0 e1 c0 9d e9 a4 28 41 a4 38 97 36 58 b9 90 a3 ed
       -31 -64 -99 -23 -92 40 65 -92 56 -105 54 88 -71 -112 -93 -19
0000c0 81 d1 0e 8f 0b 42 5e 4d ce b7 e6 a7 5a 5f 88 00
       -127 -47 14 -113 11 66 94 77 -50 -73 -26 -89 90 95 -120 0
0000d0 b0 4f d7 0b fd 59 f2 ce be 24 fe 64 e3 d3 0d f9
       -80 79 -41 11 -3 89 -14 -50 -66 36 -2 100 -29 -45 13 -7
0000e0 03 bc e8 00 32 9d 7f 87 d5 62 ad 27 d8 2d d7 24
       3 -68 -24 0 50 -99 127 -121 -43 98 -83 39 -40 45 -41 36
0000f0 2c 2a 43 3a 7f 26 b2 6b 5f f9 c6 25 3f de 1a 2b
       44 42 67 58 127 38 -78 107 95 -7 -58 37 63 -34 26 43

tfl.pseudo_qconst38 i1 [40, 1, 1, 80]
000000 1d c8 f6 20 67 8d f2 1a 29 35 55 5b 1a 67 60 a1
       29 -56 -10 32 103 -115 -14 26 41 53 85 91 26 103 96 -95
000010 4f 09 c8 a9 dd f5 af bc d6 b8 38 cb ba 2d be 7f
       79 9 -56 -87 -35 -11 -81 -68 -42 -72 56 -53 -70 45 -66 127
000020 e7 90 50 23 5a d7 50 12 b4 14 ab 00 40 23 be e8
       -25 -112 80 35 90 -41 80 18 -76 20 -85 0 64 35 -66 -24
000030 33 a0 e2 29 e7 be 4a a0 91 c7 58 b6 b2 b2 50 14
       51 -96 -30 41 -25 -66 74 -96 -111 -57 88 -74 -78 -78 80 20
000040 11 17 1c 94 70 bc fb 1c 64 16 4c e9 f2 a0 2c 0f
       17 23 28 -108 112 -68 -5 28 100 22 76 -23 -14 -96 44 15
000050 45 bb 70 3c 5b ba 97 81 48 3b 02 0f 20 84 ea d9
       69 -69 112 60 91 -70 -105 -127 72 59 2 15 32 -124 -22 -39
000060 e8 c7 f5 49 f8 50 10 0d 19 75 76 d7 dd 49 d3 cc
       -24 -57 -11 73 -8 80 16 13 25 117 118 -41 -35 73 -45 -52
000070 49 69 a1 f7 21 e2 ed b7 aa 3f a9 34 f3 0e 01 8e
       73 105 -95 -9 33 -30 -19 -73 -86 63 -87 52 -13 14 1 -114
000080 db 6a 35 ff cc be 56 64 17 32 aa 61 35 f8 14 e2
       -37 106 53 -1 -52 -66 86 100 23 50 -86 97 53 -8 20 -30
000090 72 a3 af 55 91 9b 60 ab ad dc 5f 12 23 da 9e ae
       114 -93 -81 85 -111 -101 96 -85 -83 -36 95 18 35 -38 -98 -82
0000a0 aa 3a 07 a5 fc 01 da 82 b0 c9 8a 16 69 a3 8a 27
       -86 58 7 -91 -4 1 -38 -126 -80 -55 -118 22 105 -93 -118 39
0000b0 4e 44 f2 93 bc 4a 10 ad ee 17 6e f5 9d c4 20 9c
       78 68 -14 -109 -68 74 16 -83 -18 23 110 -11 -99 -60 32 -100
0000c0 a8 32 b6 7f 8a a8 4c d8 69 e7 12 8b 49 65 d3 45
       -88 50 -74 127 -118 -88 76 -40 105 -25 18 -117 73 101 -45 69
0000d0 c1 2d 26 0b 67 98 fd 63 c7 fa a9 00 ad 74 d8 05
       -63 45 38 11 103 -104 -3 99 -57 -6 -87 0 -83 116 -40 5
0000e0 6d a3 4d 3f cd c9 e4 b7 7a e5 17 a6 b8 b0 e1 a1
       109 -93 77 63 -51 -55 -28 -73 122 -27 23 -90 -72 -80 -31 -95
0000f0 af c2 ae be e7 2d 12 7f 3e 0d 05 a7 e7 df ff ef
       -81 -62 -82 -66 -25 45 18 127 62 13 5 -89 -25 -33 -1 -17

tfl.pseudo_qconst40 i1 [40, 3, 3, 40]
000000 db 06 41 05 bc c8 39 2a 35 ef 15 34 ed cd c7 fc
       -37 6 65 5 -68 -56 57 42 53 -17 21 52 -19 -51 -57 -4
000010 0d c1 ea d5 fd fb 36 3d 1a e1 46 ef ec f8 ea c5
       13 -63 -22 -43 -3 -5 54 61 26 -31 70 -17 -20 -8 -22 -59
000020 36 1d bd ff c5 ee 36 cc 12 3d e3 23 e3 30 1b 39
       54 29 -67 -1 -59 -18 54 -52 18 61 -29 35 -29 48 27 57
000030 22 1e 42 0b 4e 07 f1 02 fd ce 20 f3 7f 14 24 d3
       34 30 66 11 78 7 -15 2 -3 -50 32 -13 127 20 36 -45
000040 0c 18 27 f8 43 4f 42 f0 42 2f 1a e1 c3 34 16 eb
       12 24 39 -8 67 79 66 -16 66 47 26 -31 -61 52 22 -21
000050 dc 0f 0e 12 f4 41 15 cc e0 32 3a 18 62 e8 08 d2
       -36 15 14 18 -12 65 21 -52 -32 50 58 24 98 -24 8 -46
000060 0b bd c5 fa 0c 17 e2 07 13 44 f2 c9 fc 47 3a 02
       11 -67 -59 -6 12 23 -30 7 19 68 -14 -55 -4 71 58 2
000070 da fd 2f c1 2b 1c 1d f5 56 f8 41 2f 00 26 ed 25
       -38 -3 47 -63 43 28 29 -11 86 -8 65 47 0 38 -19 37
000080 21 e2 1f 09 fa 2b 21 cb f5 dc 42 f4 2c f7 36 0c
       33 -30 31 9 -6 43 33 -53 -11 -36 66 -12 44 -9 54 12
000090 22 d3 2c 10 33 fc 4e 31 3d ef 46 d4 fb ea 1a ce
       34 -45 44 16 51 -4 78 49 61 -17 70 -44 -5 -22 26 -50
0000a0 d3 f9 2f 46 f0 f4 fd 2f ff 00 1a ea f2 c2 31 eb
       -45 -7 47 70 -16 -12 -3 47 -1 0 26 -22 -14 -62 49 -21
0000b0 e6 09 dd 3c 53 e5 fc 43 eb 31 e8 1e ef 3c 41 2b
       -26 9 -35 60 83 -27 -4 67 -21 49 -24 30 -17 60 65 43
0000c0 da b1 2c f2 c5 16 1b ee d6 e4 e5 18 0a 3c f4 e8
       -38 -79 44 -14 -59 22 27 -18 -42 -28 -27 24 10 60 -12 -24
0000d0 28 1e 1b 10 e6 e2 dd ef 30 2f 0e 3f 08 f7 d9 ff
       40 30 27 16 -26 -30 -35 -17 48 47 14 63 8 -9 -39 -1
0000e0 f2 2e 38 1c 2f 42 b1 c4 21 2a 4f d5 f5 e5 1a bf
       -14 46 56 28 47 66 -79 -60 33 42 79 -43 -11 -27 26 -65
0000f0 0d 32 0a ed e2 cd 03 0c c7 0d f9 0d f2 2a 04 2f
       13 50 10 -19 -30 -51 3 12 -57 13 -7 13 -14 42 4 47

tfl.pseudo_qconst42 i1 [40, 1, 1, 40]
000000 f3 15 dc e3 40 d5 f3 18 e0 22 53 c5 1a 08 2a a8
       -13 21 -36 -29 64 -43 -13 24 -32 34 83 -59 26 8 42 -88
000010 f2 b8 0c 7f 27 33 ec f0 f0 21 43 0b ee 33 e7 ec
       -14 -72 12 127 39 51 -20 -16 -16 33 67 11 -18 51 -25 -20
000020 33 de fa da 2b e1 08 e7 3c 09 4e a6 d1 67 29 c7
       51 -34 -6 -38 43 -31 8 -25 60 9 78 -90 -47 103 41 -57
000030 15 2a ee ae 4d 5a f8 5a 37 48 c1 83 ec e3 d1 a5
       21 42 -18 -82 77 90 -8 90 55 72 -63 -125 -20 -29 -47 -91
000040 81 62 42 ed 26 17 8c a4 40 4a 08 9b 08 1c f4 96
       -127 98 66 -19 38 23 -116 -92 64 74 8 -101 8 28 -12 -106
000050 f3 d5 de a5 6b 52 76 0b 49 c8 fe b5 49 d4 fd e2
       -13 -43 -34 -91 107 82 118 11 73 -56 -2 -75 73 -44 -3 -30
000060 48 b5 49 81 cf 2d 26 ef 31 64 48 22 5f cf 18 2e
       72 -75 73 -127 -49 45 38 -17 49 100 72 34 95 -49 24 46
000070 23 ff 0d 1b f9 22 3a 43 3b 31 44 b7 c2 66 70 d4
       35 -1 13 27 -7 34 58 67 59 49 68 -73 -62 102 112 -44
000080 a5 d6 5e b4 7f ff 57 cf d1 cc c3 c9 25 d2 15 3c
       -91 -42 94 -76 127 -1 87 -49 -47 -52 -61 -55 37 -46 21 60
000090 a9 e1 0c f5 ec 0d 27 cc f5 d9 31 26 a4 51 67 0a
       -87 -31 12 -11 -20 13 39 -52 -11 -39 49 38 -92 81 103 10
0000a0 12 58 fd cb 3c c7 dd af 01 3d d8 e9 3c e1 1a 49
       18 88 -3 -53 60 -57 -35 -81 1 61 -40 -23 60 -31 26 73
0000b0 e0 fe a7 0f f5 e2 7f 28 cf a9 da d5 11 f1 32 78
       -32 -2 -89 15 -11 -30 127 40 -49 -87 -38 -43 17 -15 50 120
0000c0 44 c1 24 d5 14 dd e9 e1 cf 6a b9 3f 32 15 1f b8
       68 -63 36 -43 20 -35 -23 -31 -49 106 -71 63 50 21 31 -72
0000d0 4f d6 f3 a5 b1 53 40 fe 7f 52 ac dd 1e fe e9 c1
       79 -42 -13 -91 -79 83 64 -2 127 82 -84 -35 30 -2 -23 -63
0000e0 ef f8 b7 5e 2d ab e1 c2 38 58 03 29 9f a7 4b 64
       -17 -8 -73 94 45 -85 -31 -62 56 88 3 41 -97 -89 75 100
0000f0 f1 26 27 89 75 c2 3c 6c 84 85 f5 82 5c 86 8f 7a
       -15 38 39 -119 117 -62 60 108 -124 -123 -11 -126 92 -122 -113 122

tfl.pseudo_qconst44 i1 [20, 1, 1, 80]
000000 a0 c9 c5 6f 49 1f 52 04 17 bf 68 fd 21 da 48 c0
       -96 -55 -59 111 73 31 82 4 23 -65 104 -3 33 -38 72 -64
000010 5a 25 cf 2a b8 52 51 3e 79 df ad 7e f9 ab 5b c0
       90 37 -49 42 -72 82 81 62 121 -33 -83 126 -7 -85 91 -64
000020 5e c3 c1 0a 67 5e 2e a2 7d 1e ed f5 da f7 ce b9
       94 -61 -63 10 103 94 46 -94 125 30 -19 -11 -38 -9 -50 -71
000030 f5 c5 e2 d6 e1 b3 ef 49 0a 33 7f d6 59 6c 8a ec
       -11 -59 -30 -42 -31 -77 -17 73 10 51 127 -42 89 108 -118 -20
000040 24 1d 1f dc 20 ea 52 9c 43 6f 3c ab 2d 2b e3 43
       36 29 31 -36 32 -22 82 -100 67 111 60 -85 45 43 -29 67
000050 e5 f9 ec 44 9b 97 c7 db ef ea b1 5d 55 b0 ae 2b
       -27 -7 -20 68 -101 -105 -57 -37 -17 -22 -79 93 85 -80 -82 43
000060 e5 9b 4d 56 e4 37 c7 13 cc b3 98 0a 96 46 cd 93
       -27 -101 77 86 -28 55 -57 19 -52 -77 -104 10 -106 70 -51 -109
000070 dd d3 e7 e6 50 55 a7 41 a9 f5 ed 21 e3 14 b5 81
       -35 -45 -25 -26 80 85 -89 65 -87 -11 -19 33 -29 20 -75 -127
000080 1b e9 55 56 f7 04 46 41 b7 e3 eb d5 1e 57 af 06
       27 -23 85 86 -9 4 70 65 -73 -29 -21 -43 30 87 -81 6
000090 ea b7 ba a0 db bc 01 b2 08 b1 f2 39 44 d5 3b eb
       -22 -73 -70 -96 -37 -68 1 -78 8 -79 -14 57 68 -43 59 -21
0000a0 f3 1f f5 ee 01 fd 2f d1 df 25 e9 dd 57 4e 49 ff
       -13 31 -11 -18 1 -3 47 -47 -33 37 -23 -35 87 78 73 -1
0000b0 0a e2 04 c0 18 46 db 03 36 18 d4 18 3c f0 3c 13
       10 -30 4 -64 24 70 -37 3 54 24 -44 24 60 -16 60 19
0000c0 de ba 33 18 0d dd 3e 44 bc c5 c1 57 c2 0f b8 c0
       -34 -70 51 24 13 -35 62 68 -68 -59 -63 87 -62 15 -72 -64
0000d0 f9 08 33 1b f9 e5 17 bf f5 e7 ae 13 e3 a1 20 95
       -7 8 51 27 -7 -27 23 -65 -11 -25 -82 19 -29 -95 32 -107
0000e0 81 f9 58 aa f5 a5 b4 56 a5 4a d3 2d ae 61 02 4d
       -127 -7 88 -86 -11 -91 -76 86 -91 74 -45 45 -82 97 2 77
0000f0 18 31 fb 1c 9f b9 95 ec cd 9b a7 31 a3 d2 05 f7
       24 49 -5 28 -97 -71 -107 -20 -51 -101 -89 49 -93 -46 5 -9

tfl.pseudo_qconst46 i1 [20, 3, 3, 20]
000000 44 1d e3 c8 e2 e8 0d d1 eb cd d5 46 f8 2d 04 20
       68 29 -29 -56 -30 -24 13 -47 -21 -51 -43 70 -8 45 4 32
000010 58 ee d9 0f 06 d5 23 33 e1 30 1f e7 f6 48 2d 43
       88 -18 -39 15 6 -43 35 51 -31 48 31 -25 -10 72 45 67
000020 da 1b 46 db 15 48 25 5e 2b 26 e0 e8 00 f8 e0 19
       -38 27 70 -37 21 72 37 94 43 38 -32 -24 0 -8 -32 25
000030 0d fd 4b 2d c3 c1 cf 27 0e 2d d6 1b fe 0d 02 21
       13 -3 75 45 -61 -63 -49 39 14 45 -42 27 -2 13 2 33
000040 fb 47 3e 13 2a 1f f0 08 33 e9 36 37 48 07 48 4e
       -5 71 62 19 42 31 -16 8 51 -23 54 55 72 7 72 78
000050 4f 4a bb cc e6 26 40 d5 df 3a 39 fa 54 c3 60 26
       79 74 -69 -52 -26 38 64 -43 -33 58 57 -6 84 -61 96 38
000060 73 47 49 19 fb e7 c0 df 20 41 d5 3c fb df 04 48
       115 71 73 25 -5 -25 -64 -33 32 65 -43 60 -5 -33 4 72
000070 01 02 19 dd ec 59 ae ba 09 1b be 0e 40 25 57 ea
       1 2 25 -35 -20 89 -82 -70 9 27 -66 14 64 37 87 -22
000080 41 59 ec 19 3a ee 3a 27 19 07 ef e6 1a d9 0b 50
       65 89 -20 25 58 -18 58 39 25 7 -17 -26 26 -39 11 80
000090 4b 13 65 d9 de 3f 2b 0e 0d 1f 7f d7 7a ef ec e5
       75 19 101 -39 -34 63 43 14 13 31 127 -41 122 -17 -20 -27
0000a0 cd 3e 56 d0 41 1b a6 2f f5 a5 ce fa 30 ef be 28
       -51 62 86 -48 65 27 -90 47 -11 -91 -50 -6 48 -17 -66 40
0000b0 42 76 92 cd 44 f2 f3 11 da e0 d3 c9 db 30 ff 01
       66 118 -110 -51 68 -14 -13 17 -38 -32 -45 -55 -37 48 -1 1
0000c0 fd c6 2d 48 23 0d 33 e7 d8 2c 2e 05 0a e1 b8 e8
       -3 -58 45 72 35 13 51 -25 -40 44 46 5 10 -31 -72 -24
0000d0 cf 3f 1c 3b f3 bf 32 3d 0c d1 29 c0 fc 19 e7 d9
       -49 63 28 59 -13 -65 50 61 12 -47 41 -64 -4 25 -25 -39
0000e0 0b f0 f6 20 ec 33 24 16 e6 0f 26 1d dc 2c 25 f1
       11 -16 -10 32 -20 51 36 22 -26 15 38 29 -36 44 37 -15
0000f0 4f d0 f8 e6 d2 c6 10 ff 33 11 14 28 e4 2a 37 1b
       79 -48 -8 -26 -46 -58 16 -1 51 17 20 40 -28 42 55 27

tfl.pseudo_qconst48 i1 [20, 1, 1, 20]
000000 06 10 5f 8e c4 02 13 9d 3a c8 7a 7f 2d 26 53 07
       6 16 95 -114 -60 2 19 -99 58 -56 122 127 45 38 83 7
000010 21 6c e1 89 7f 64 5b 79 ec ad bf ea a0 a1 bf dc
       33 108 -31 -119 127 100 91 121 -20 -83 -65 -22 -96 -95 -65 -36
000020 2a 70 46 5d 45 35 b1 b7 ff 8b 4b 7f 9f 0d 4e ef
       42 112 70 93 69 53 -79 -73 -1 -117 75 127 -97 13 78 -17
000030 5d 05 f9 f1 65 4a d4 95 aa f6 a0 50 f2 eb f0 2e
       93 5 -7 -15 101 74 -44 -107 -86 -10 -96 80 -14 -21 -16 46
000040 26 4c 8e e8 af 73 a1 ee 8b 7f a2 aa da ad f0 bf
       38 76 -114 -24 -81 115 -95 -18 -117 127 -94 -86 -38 -83 -16 -65
000050 7f d3 b7 5f 1d f3 6b 0c d3 2a 1b 29 3b d2 0b 17
       127 -45 -73 95 29 -13 107 12 -45 42 27 41 59 -46 11 23
000060 f8 37 0c b5 fb f5 b4 a0 76 de 00 77 a3 5b c0 23
       -8 55 12 -75 -5 -11 -76 -96 118 -34 0 119 -93 91 -64 35
000070 20 23 d4 a4 f0 64 00 7f 35 3b c8 97 2e 24 2c 50
       32 35 -44 -92 -16 100 0 127 53 59 -56 -105 46 36 44 80
000080 31 30 13 4c ec 94 ae 81 f4 56 ac 40 cc 17 60 32
       49 48 19 76 -20 -108 -82 -127 -12 86 -84 64 -52 23 96 50
000090 43 95 54 3a 32 89 81 87 19 3b 34 1b c7 3a 22 f3
       67 -107 84 58 50 -119 -127 -121 25 59 52 27 -57 58 34 -13
0000a0 f8 71 0d c2 5a ab 91 7b ad ce c7 67 4c 7f 36 43
       -8 113 13 -62 90 -85 -111 123 -83 -50 -57 103 76 127 54 67
0000b0 fb 29 84 9b 1c f5 57 cb d9 63 14 a4 e7 34 af 32
       -5 41 -124 -101 28 -11 87 -53 -39 99 20 -92 -25 52 -81 50
0000c0 15 9a 29 81 1f e7 19 a3 ae 3e 5d cf ff ad ba 1e
       21 -102 41 -127 31 -25 25 -93 -82 62 93 -49 -1 -83 -70 30
0000d0 05 bd 18 7f af 4a 44 d2 1e d2 52 9f 6f a5 22 22
       5 -67 24 127 -81 74 68 -46 30 -46 82 -97 111 -91 34 34
0000e0 da 81 d7 2e fb 05 f4 b5 b9 12 93 75 a7 a3 76 13
       -38 -127 -41 46 -5 5 -12 -75 -71 18 -109 117 -89 -93 118 19
0000f0 e5 7f 29 ca 0c 07 36 5a b3 36 d1 b3 09 dc f2 50
       -27 127 41 -54 12 7 54 90 -77 54 -47 -77 9 -36 -14 80

tfl.pseudo_qconst50 i1 [20, 1, 1, 80]
000000 e5 48 0a 47 1b 08 ee 1e b7 15 33 4b f3 d1 16 0a
       -27 72 10 71 27 8 -18 30 -73 21 51 75 -13 -47 22 10
000010 d4 f7 ec 13 36 7f a8 32 b6 ce ae 6e 09 a8 3f 67
       -44 -9 -20 19 54 127 -88 50 -74 -50 -82 110 9 -88 63 103
000020 00 f2 18 21 e5 f8 23 e8 d0 0c b9 df 1e f6 db dc
       0 -14 24 33 -27 -8 35 -24 -48 12 -71 -33 30 -10 -37 -36
000030 1d 18 eb f7 dd 04 ac da 1d ea 2b e7 96 5d 5f 3c
       29 24 -21 -9 -35 4 -84 -38 29 -22 43 -25 -106 93 95 60
000040 25 0d 5b ac 6f 2d 4a e7 19 28 b1 23 1c f1 26 41
       37 13 91 -84 111 45 74 -25 25 40 -79 35 28 -15 38 65
000050 c7 2d 65 13 3f 10 d0 d6 be d7 14 a8 44 49 f0 e9
       -57 45 101 19 63 16 -48 -42 -66 -41 20 -88 68 73 -16 -23
000060 21 32 94 fa eb f6 d8 ff e6 c7 d5 b9 b5 37 2c 36
       33 50 -108 -6 -21 -10 -40 -1 -26 -57 -43 -71 -75 55 44 54
000070 15 df dd 41 2c ef b8 0a 32 d1 f3 2d 1b 36 d1 c1
       21 -33 -35 65 44 -17 -72 10 50 -47 -13 45 27 54 -47 -63
000080 d8 ef c4 cc 10 14 01 cd 1f 39 b3 fd 23 b3 44 fe
       -40 -17 -60 -52 16 20 1 -51 31 57 -77 -3 35 -77 68 -2
000090 c6 d1 3e c8 15 ce d0 f9 c4 ba e8 6a a5 42 2c 7f
       -58 -47 62 -56 21 -50 -48 -7 -60 -70 -24 106 -91 66 44 127
0000a0 ed 39 f1 68 0e 8a 24 57 35 e9 4a 64 c5 a9 41 d3
       -19 57 -15 104 14 -118 36 87 53 -23 74 100 -59 -87 65 -45
0000b0 b6 97 3e 0c 0e ee e8 33 eb 1f 39 aa ea 28 6d 6e
       -74 -105 62 12 14 -18 -24 51 -21 31 57 -86 -22 40 109 110
0000c0 5b 3b 4d 0a e6 05 00 28 69 f5 98 0d f5 e0 fa ab
       91 59 77 10 -26 5 0 40 105 -11 -104 13 -11 -32 -6 -85
0000d0 5d 27 32 38 ad 37 b6 c2 05 a0 29 df bd c5 95 11
       93 39 50 56 -83 55 -74 -62 5 -96 41 -33 -67 -59 -107 17
0000e0 ca 25 31 5a 22 20 aa ef f6 aa cd 7f 06 3f 1b 5b
       -54 37 49 90 34 32 -86 -17 -10 -86 -51 127 6 63 27 91
0000f0 2e ec c4 e4 4c ad fc 4a 1b 5a 53 1c c6 dd c8 34
       46 -20 -60 -28 76 -83 -4 74 27 90 83 28 -58 -35 -56 52

tfl.pseudo_qconst52 i1 [40, 1, 1, 80]
000000 16 d1 c8 08 cc 63 81 db 1c 4e 45 5c 90 0b e6 4b
       22 -47 -56 8 -52 99 -127 -37 28 78 69 92 -112 11 -26 75
000010 11 9d bc 5f a2 b6 2e e9 35 05 f3 24 da ba 36 20
       17 -99 -68 95 -94 -74 46 -23 53 5 -13 36 -38 -70 54 32
000020 f9 1b cf f0 ca 1a ed 89 ef d3 30 c7 b5 c1 a3 42
       -7 27 -49 -16 -54 26 -19 -119 -17 -45 48 -57 -75 -63 -93 66
000030 d1 29 df 58 26 ec bc 04 ff d6 cc cb 44 c6 00 f6
       -47 41 -33 88 38 -20 -68 4 -1 -42 -52 -53 68 -58 0 -10
000040 2f e7 a1 43 bc 14 c5 09 d6 2b ad 02 ba 43 18 18
       47 -25 -95 67 -68 20 -59 9 -42 43 -83 2 -70 67 24 24
000050 1d 69 1b 78 4c 8e 22 b9 8e dc 84 9b cd a1 34 74
       29 105 27 120 76 -114 34 -71 -114 -36 -124 -101 -51 -95 52 116
000060 e0 74 13 8d 5c c6 1c e0 4f 45 81 07 93 7b 91 42
       -32 116 19 -115 92 -58 28 -32 79 69 -127 7 -109 123 -111 66
000070 ff cc 77 c0 29 2b 5d 46 42 01 a5 be 73 5e a8 a0
       -1 -52 119 -64 41 43 93 70 66 1 -91 -66 115 94 -88 -96
000080 4f 0e ae 54 d2 6d 29 e6 49 9f 1b 00 eb 9e be 7c
       79 14 -82 84 -46 109 41 -26 73 -97 27 0 -21 -98 -66 124
000090 62 c4 28 b5 cd 90 fd db fa dd 31 ee 45 69 40 9e
       98 -60 40 -75 -51 -112 -3 -37 -6 -35 49 -18 69 105 64 -98
0000a0 32 ef 98 58 38 86 d2 17 69 3c 1a ba 33 29 12 22
       50 -17 -104 88 56 -122 -46 23 105 60 26 -70 51 41 18 34
0000b0 a5 68 e8 f6 97 f3 79 ce 15 58 c8 60 ac 0f 07 81
       -91 104 -24 -10 -105 -13 121 -50 21 88 -56 96 -84 15 7 -127
0000c0 c7 0b 08 f9 72 9f 81 b8 74 cb 37 e3 22 2f 5e e9
       -57 11 8 -7 114 -97 -127 -72 116 -53 55 -29 34 47 94 -23
0000d0 ed 3d f2 a4 9b 1b 8d be 5f d1 b3 18 d5 24 ff e3
       -19 61 -14 -92 -101 27 -115 -66 95 -47 -77 24 -43 36 -1 -29
0000e0 b6 23 d4 e7 f4 53 d0 05 0c c4 fb 08 98 2e 0e 1c
       -74 35 -44 -25 -12 83 -48 5 12 -60 -5 8 -104 46 14 28
0000f0 de 45 b5 4c 6e c5 b5 31 4d bd 53 41 d2 9f 18 10
       -34 69 -75 76 110 -59 -75 49 77 -67 83 65 -46 -97 24 16
